wyuczone_wagi_steps_10000.pth (torch, 139295 bytes, 8 tensors)

fc_shared.weight f4 [128, 4]
0	0xbed5fb68	-0.4179337
1	0x3ea41304	0.32045758
2	0xbeae8b68	-0.34090734
3	0x3e700930	0.23441005
4	0xbea9a792	-0.33135659
5	0x3e89bf5e	0.26903814
6	0xbde3add0	-0.111171365
7	0xbe16f900	-0.14743423
8	0xbe9c8a02	-0.30574042
9	0xbe42b0cc	-0.19012755
10	0xbe149dc8	-0.14513314
11	0xbdf43da8	-0.119258225
12	0x3e510b2c	0.20414418
13	0xbea050e8	-0.31311727
14	0xbe7bf6ec	-0.24605912
15	0x3e9c9656	0.30583447
16	0x3d6b5380	0.05745268
17	0x3e2f6fec	0.17132539
18	0xbe999d2c	-0.30002725
19	0x3d5c74d0	0.05382234
20	0xbe8fe72c	-0.28106058
21	0xbe8d73f0	-0.27627516
22	0x3e5dde3c	0.21666807
23	0x3ed70420	0.41995335
24	0x3e5dc678	0.21657741
25	0x3ee58d3a	0.4483431
26	0xbdf116b8	-0.117719114
27	0xbe3978e0	-0.18112516
28	0xbe2af134	-0.16693574
29	0x3e83a57e	0.25712198
30	0xbefff5a0	-0.49992085
31	0xbe7471c0	-0.23871517
32	0x3e92f346	0.28701228
33	0xbd6a0580	-0.05713415
34	0x3ee5e39c	0.44900215
35	0xbe7402c0	-0.23829174
36	0x3d12ffe0	0.035888553
37	0xbee06a82	-0.4383126
38	0xbea4de6e	-0.3220095
39	0x3ece5206	0.40296954
40	0x3eb4b8f0	0.35297346
41	0x3ea7bb4e	0.3276009
42	0xbeeffb72	-0.46871525
43	0xbd887ca0	-0.06664395
44	0x3eb1e9ce	0.3474869
45	0xbef51afa	-0.47872144
46	0xbdfb52b8	-0.12271637
47	0xbee2096c	-0.44147813
48	0x3ed6d14c	0.41956556
49	0x3ebb66c4	0.3660184
50	0x3ea253b4	0.31704485
51	0xbef9e1bc	-0.48805034
52	0x3e83ae90	0.25719118
53	0x3e88db90	0.26730013
54	0x3eb1bbd4	0.34713614
55	0xbe2bebdc	-0.16789192
56	0xbd986810	-0.07441723
57	0xbe628250	-0.22120023
58	0xbee10170	-0.4394641
59	0xbecb5d70	-0.39719725
60	0xbe264e94	-0.16240913
61	0xbdfccd38	-0.1234383
62	0xbdfc0668	-0.123059094
63	0xbeb7aec2	-0.35875517
64	0xbdb5f788	-0.088851035
65	0xbef24342	-0.4731694
66	0xbd923310	-0.07138646
67	0x3d83abf0	0.06429279
68	0x3d47f7b0	0.048820198
69	0xbe44cec4	-0.192195
70	0x3dee72f0	0.11643016
71	0xbe63aed4	-0.2223466
72	0xbec71324	-0.3888179
73	0xbdb1d0c0	-0.08682394
74	0xbe7c04ac	-0.24611157
75	0xbd82e620	-0.06391549
76	0x3ee56320	0.4480219
77	0x3ec8391c	0.3910607
78	0x3d2b01f0	0.041749895
79	0xbea3330e	-0.3187489
80	0xbe3b194c	-0.18271369
81	0x3ec68d12	0.38779503
82	0x3eb915f6	0.36149567
83	0x3eaa7836	0.3329484
84	0xbe9558b8	-0.2916925
85	0x3efbcb98	0.49178767
86	0xbc200840	-0.009767592
87	0x3c5bc680	0.013414025
88	0x3efbf16e	0.49207634
89	0x3ef2e8be	0.47443193
90	0xbeecc558	-0.4624431
91	0xbecf3ec2	-0.40477568
92	0x3c08b100	0.008342981
93	0xbe861730	-0.26189566
94	0xbece9968	-0.40351415
95	0x3e9d7fb8	0.30761504
96	0xbe2a0d00	-0.16606522
97	0x3e748d44	0.23882014
98	0x3e2dfe08	0.16991436
99	0xbe977fb8	-0.2958963
100	0xbedf3b76	-0.43600053
101	0xbed4e378	-0.41579795
102	0xbe90a102	-0.2824784
103	0xbd695de0	-0.05697429
104	0x3ed6c636	0.41948098
105	0x3d929040	0.0715642
106	0x3df0b230	0.117527366
107	0xbec4ec8a	-0.38461715
108	0x3e2d1834	0.16903764
109	0xbd23d390	-0.039996684
110	0x3e491794	0.196379
111	0x3efff84c	0.49994123
112	0x3ee9e016	0.45678777
113	0xbe6c7190	-0.23090196
114	0x3e15252c	0.14564961
115	0x3ee56c92	0.44809395
116	0x3ec29618	0.38005137
117	0x3eed334a	0.46328193
118	0xbee141ce	-0.43995517
119	0xbe2e35e4	-0.17012745
120	0xbdeb2290	-0.11481202
121	0x3cc9c4a0	0.02462989
122	0xbeb33990	-0.35004854
123	0x3e7a030c	0.24415225
124	0x3eb2d32e	0.34926742
125	0x3ea9e1b2	0.33180004
126	0xbebda138	-0.37037063
127	0x3ef66a1a	0.48127824
128	0xbec54f9c	-0.385373
129	0x3ea8d36a	0.32973796
130	0xbe80964a	-0.2511466
131	0xbe84d816	-0.2594611
132	0x3ede0ea8	0.43370557
133	0x3ec8db92	0.3923002
134	0x3e5834fc	0.21113962
135	0x3edf4be6	0.43612593
136	0xbdc0c440	-0.09412432
137	0x3eaccdf4	0.3375088
138	0xbebbea50	-0.36702204
139	0xbebfdf4e	-0.37475055
140	0xbd932478	-0.0718469
141	0xbe995124	-0.29944718
142	0xbe83afc0	-0.25720024
143	0x3e53c7b4	0.2068165
144	0x3ef27e38	0.47361922
145	0xbe3fe250	-0.18738675
146	0xbea53238	-0.32264876
147	0xbed015ce	-0.40641636
148	0x3edfa1b8	0.4367807
149	0xbe87cc9a	-0.26523286
150	0x3ee64a7e	0.44978708
151	0xbedda6fc	-0.4329146
152	0x3ede3dae	0.43406433
153	0x3ef67e20	0.481431
154	0x3eb5d95e	0.355174
155	0xbe70ff3c	-0.23534864
156	0x3ea6845e	0.32522863
157	0x3e014a94	0.12626106
158	0xbefdc856	-0.49566907
159	0xbee67c4a	-0.450167
160	0xbe23d390	-0.15998673
161	0x3edb772e	0.42864364
162	0xbe467fdc	-0.19384712
163	0xbed97926	-0.4247524
164	0x3db975a8	0.09055644
165	0x3e86a8fe	0.26300806
166	0xbec74c6a	-0.38925487
167	0x3eac2f58	0.3362987
168	0xbeb4eff0	-0.35339308
169	0x3e25f338	0.16206062
170	0x3e044e10	0.12920403
171	0xbef8451c	-0.48490226
172	0x3ea90388	0.33010507
173	0x3eb0aac4	0.34505284
174	0x3e55f234	0.20893174
175	0x3ee2f05a	0.44324
176	0x3e37c564	0.17946392
177	0xbe89c94c	-0.2691139
178	0x3e419ea0	0.18908167
179	0x3e7ee57c	0.24892229
180	0xbe688554	-0.2270711
181	0x3d1cfc10	0.038326323
182	0x3eb3365e	0.35002416
183	0x3ee7ae62	0.4525023
184	0x3d370e10	0.044691145
185	0xbed60128	-0.41797757
186	0x3e7888e0	0.24270964
187	0x3ebc2764	0.36748803
188	0x3e12d884	0.14340407
189	0xbe0aa600	-0.13539886
190	0x3ed9cc98	0.42538905
191	0xbeefdcba	-0.46848089
192	0xbec5389e	-0.38519758
193	0x3e511138	0.20416725
194	0xbccdb020	-0.025108397
195	0xbec63104	-0.3870927
196	0x3e966e00	0.29380798
197	0xbe5da9d4	-0.21646816
198	0x3efe9d40	0.49729347
199	0xbe908438	-0.28225875
200	0xbd78c060	-0.060730338
201	0x3ee22496	0.44168538
202	0x3e4a8a18	0.19779241
203	0xbef7860c	-0.48344457
204	0xbe10a43c	-0.1412515
205	0xbd7b6ec0	-0.061384916
206	0xbec8331a	-0.39101487
207	0x3ee73d56	0.45163983
208	0x3ea92084	0.3303262
209	0x3eb1bd90	0.34714937
210	0xbe7728b4	-0.24136621
211	0xbe885dcc	-0.2663406
212	0xbea41502	-0.32047278
213	0x3ee0b18e	0.43885463
214	0x3ec897b0	0.39178228
215	0x3ec33012	0.38122612
216	0x3e486944	0.19571406
217	0x3eab5c56	0.33468884
218	0x3de7a4c0	0.113107204
219	0xbe899d94	-0.26878035
220	0x3e000f84	0.12505919
221	0x3e829db4	0.25510943
222	0xbe39c2d0	-0.18140721
223	0xbeff13f4	-0.4981991
224	0x3e417e8c	0.1889593
225	0x3eb30756	0.34966534
226	0x3efa1e96	0.4885146
227	0xbda39c80	-0.079888344
228	0x3eb58edc	0.35460556
229	0xbe9a4e16	-0.301377
230	0x3eb5e884	0.35528958
231	0xbe03bc2c	-0.1286475
232	0x3e43e2dc	0.19129509
233	0xbea99f32	-0.3312927
234	0x3df8d638	0.12150234
235	0xbeede9f2	-0.4646755
236	0x3de06e40	0.109585285
237	0x3ed4d9ce	0.41572422
238	0x3ed15752	0.40886933
239	0xbee655fc	-0.44987476
240	0x3e202c74	0.15641958
241	0x3ee62698	0.4495132
242	0x3eff7d38	0.49900222
243	0xbde84c40	-0.113426685
244	0xbee89b4c	-0.45430982
245	0x3ebb708e	0.3660931
246	0x3ef48ac0	0.47762108
247	0x3d8cce28	0.06875259
248	0xbe9d5034	-0.30725253
249	0x3ea374de	0.319251
250	0x3ed6b72a	0.41936618
251	0x3d1ab130	0.037766635
252	0xbec8e05a	-0.39233667
253	0xbe3c9278	-0.18415248
254	0x3e91e064	0.2849151
255	0xbe5b1824	-0.21395928

fc_shared.bias f4 [128]
0	0xbcf3c0c0	-0.029754996
1	0x3e616eb4	0.22014886
2	0x3d878828	0.066177666
3	0x3e8b110a	0.27161437
4	0x3e53b2d0	0.2067368
5	0x3df8aad8	0.12141961
6	0xbe0383d8	-0.12843263
7	0xbe9f755a	-0.3114422
8	0x3ef84792	0.48492104
9	0x3eb71b92	0.35763222
10	0xbe81722e	-0.25282425
11	0x3e28746c	0.16450661
12	0x3e9d0eca	0.30675346
13	0xbea65b6a	-0.32491618
14	0xbed77294	-0.42079604
15	0xbea134d8	-0.3148563
16	0xbedf8a7c	-0.43660343
17	0x3c45ca00	0.012072086
18	0xbe7b5930	-0.24545741
19	0xbd22ce90	-0.039747775
20	0x3e47881c	0.19485515
21	0xbe2365cc	-0.15956801
22	0x3e99061a	0.29887468
23	0x3eaeddca	0.34153587
24	0xbe6087ec	-0.2192685
25	0x3ebd026a	0.36915904
26	0xbeb072ea	-0.34462672
27	0xbe36c3d0	-0.17848134
28	0xbdb23a60	-0.087025404
29	0xbeac8510	-0.3369527
30	0x3ed8f222	0.42372233
31	0x3dca6180	0.09881878
32	0x3eea3056	0.45740002
33	0xbe10a600	-0.14125824
34	0x3e6b719c	0.22992557
35	0x3e348bac	0.17631406
36	0x3e814888	0.2525065
37	0xbdc66880	-0.096879005
38	0xbdae6710	-0.08515751
39	0x3d124a40	0.03571534
40	0x3eb749b6	0.35798424
41	0x3ec79e1e	0.3898782
42	0xbe4ae538	-0.19814003
43	0x3eda7ad6	0.4267184
44	0x3dad0df8	0.0844993
45	0xbe60eff4	-0.21966535
46	0x3eb4c05c	0.3530301
47	0x3ef0cdc0	0.47031975
48	0xbdd79db8	-0.10528129
49	0x3ed63fd8	0.41845584
50	0x3efb45dc	0.49076736
51	0x3ef9c8c6	0.4878599
52	0xbeaa18e0	-0.33222103
53	0x3ec72400	0.38894653
54	0xbd77e190	-0.060517848
55	0x3dabbd90	0.083857656
56	0xbde13618	-0.10996646
57	0xbdbbb398	-0.09165114
58	0x3e448908	0.19192898
59	0x3e580d78	0.21098888
60	0xbed7866c	-0.42094743
61	0x3e35a650	0.17739224
62	0xbee74fe6	-0.45178145
63	0x3a7cf400	0.0009649396
64	0x3ee12770	0.439754
65	0xbe6b9e0c	-0.23009509
66	0xbed6251a	-0.4182518
67	0x3cf91f80	0.030410528
68	0x3d04a000	0.03237915
69	0x3e8875dc	0.2665242
70	0xbea2d4f0	-0.31803083
71	0x3d49d630	0.04927653
72	0xbe319910	-0.17343545
73	0xbed967ac	-0.42461908
74	0xbef3fa3c	-0.4765185
75	0xbed19254	-0.40931952
76	0xbe7d4188	-0.2473203
77	0xbee10ee6	-0.4395668
78	0x3e1670bc	0.14691442
79	0xbedfa244	-0.43678486
80	0x3ebe611e	0.3718347
81	0xbcc19c60	-0.023634136
82	0xbe1536e4	-0.1457172
83	0x3ea8b384	0.3294946
84	0xbed294d6	-0.41129178
85	0x3ce3f0a0	0.0278247
86	0xbe221170	-0.15826964
87	0xbe9d6a2e	-0.3074507
88	0xbb80c680	-0.003929913
89	0x3ed19bf0	0.40939283
90	0x3e3faa58	0.18717325
91	0xbee2d7d8	-0.443053
92	0x3e457c78	0.19285762
93	0xbddb6de8	-0.10714322
94	0xbe44d274	-0.19220906
95	0xbdba10b8	-0.0908522
96	0x3eae4974	0.34040415
97	0xbeb6915c	-0.35657775
98	0x3d1717e0	0.036888003
99	0x3e488ad8	0.19584215
100	0x3ea6ecf8	0.32602668
101	0xbe32c4c0	-0.17457867
102	0xbcf73880	-0.030178308
103	0x3e180010	0.14843774
104	0x3ec18878	0.3779943
105	0xbd792a10	-0.06083113
106	0xbeb45b3c	-0.35225856
107	0x3ddef4b8	0.1088652
108	0x3e7bc458	0.24586618
109	0xbe1db16c	-0.15399712
110	0xbee84502	-0.4536515
111	0x3e93a1ea	0.28834468
112	0x3eaaf740	0.33391762
113	0x3e83d6ba	0.2574976
114	0x3efa8d34	0.48935854
115	0xbeff02b2	-0.49806744
116	0xbee9292c	-0.45539224
117	0xbeee8ffc	-0.46594226
118	0x3e9e401a	0.3090828
119	0xbe4d0570	-0.20021605
120	0xbe5ee780	-0.21767998
121	0xbe74ddd4	-0.23912746
122	0xbe215534	-0.15755159
123	0x3e090d0c	0.13383883
124	0x3e08f4d0	0.13374639
125	0xbd81ed80	-0.06344128
126	0xbeb16c0e	-0.34652752
127	0x3efa33fa	0.4886778

fc_policy.weight f4 [128, 128]
0	0xbd90d9ea	-0.07072814
1	0xbccf21f0	-0.025284737
2	0xbb3f5e80	-0.0029200613
3	0x3dad83c7	0.084724
4	0x3c112a58	0.008860193
5	0xbce14ffc	-0.02750396
6	0x3ccf2508	0.025286213
7	0xbda636a1	-0.081158884
8	0x3d40269e	0.04691183
9	0xbca534c4	-0.020166762
10	0x3d9ac103	0.07556345
11	0x3cb65904	0.022259243
12	0xbd533436	-0.051563464
13	0x3d309066	0.04310646
14	0x3d13af4c	0.036055848
15	0x3b1c2d00	0.0023830533
16	0xbbeb75f0	-0.00718569
17	0xbd8c51d3	-0.06851544
18	0x3d58e30e	0.05295091
19	0x39f93900	0.0004753545
20	0x3cc50cd8	0.024053976
21	0xbd8d3f01	-0.06896783
22	0xbd4a5fb9	-0.049407694
23	0xbceb93ca	-0.028756995
24	0xbd261e40	-0.040556192
25	0xbc1fcb98	-0.00975313
26	0x3d7790fe	0.06044101
27	0x3d985d57	0.07439678
28	0xbd345a0d	-0.04403119
29	0x3c81057c	0.015749685
30	0xbc8a1fb0	-0.016860813
31	0x3dad8f03	0.08474543
32	0xbd20ed80	-0.039288998
33	0x3d1b4eea	0.037917055
34	0x3da4726d	0.080296375
35	0xbcba6f08	-0.022758022
36	0x3d3e181e	0.04640972
37	0xbd88b692	-0.066754475
38	0xbcd558d0	-0.026043326
39	0xbd91908e	-0.0710765
40	0x3c9ee8b8	0.019398078
41	0x3d206c46	0.039165758
42	0xbd221d0c	-0.039578483
43	0x3d2fb21a	0.04289446
44	0xbcba342c	-0.022729956
45	0xbda5bdcc	-0.080928415
46	0x3d332726	0.043738507
47	0xbd8523fd	-0.06501005
48	0xbd4b1c72	-0.049587674
49	0xbda2beac	-0.07946524
50	0xb904f200	-0.00012678653
51	0xbca7d7d0	-0.02048865
52	0x3d9ce763	0.07661321
53	0xbca45410	-0.020059615
54	0x3da7920d	0.08182154
55	0x3d243cde	0.04009711
56	0xbb711500	-0.0036786199
57	0xbd31431e	-0.0432769
58	0x3d94ffc1	0.07275344
59	0xbc8015dc	-0.015635423
60	0x3d9beecf	0.076139085
61	0xbd0fdc08	-0.035121948
62	0x3cc6ad14	0.024252452
63	0xbc6c9fb8	-0.014442377
64	0x3d963f19	0.07336254
65	0xbca8addc	-0.020590715
66	0x3c525d28	0.012839593
67	0xbd27263c	-0.040807948
68	0xbc85bf20	-0.016326487
69	0x3d810347	0.06299453
70	0x3d88b1fb	0.06674572
71	0x3d49329e	0.049120538
72	0x3c25b8e8	0.010114886
73	0xbd88c8e8	-0.06678945
74	0x3cc539f8	0.024075493
75	0x3daafc5f	0.08348917
76	0xbd198cf0	-0.037487924
77	0x3d717e32	0.05895824
78	0xbd49e6c9	-0.04929236
79	0x3daf813f	0.085695736
80	0xbd856fa3	-0.06515434
81	0xbc359cd8	-0.011084758
82	0xbd0f32a6	-0.03496041
83	0xbd0d002a	-0.034423985
84	0xbd23a34b	-0.03995065
85	0xbd3b17c1	-0.04567695
86	0xbdb2474a	-0.087050036
87	0xbd943efa	-0.07238574
88	0x3d83092d	0.063982345
89	0xbd614064	-0.05499305
90	0x3cd01d68	0.025404647
91	0x3c2e80e0	0.010650843
92	0x3c8026cc	0.0156435
93	0xbcea5e36	-0.028609376
94	0xbda27d84	-0.079340965
95	0xbd5a12d7	-0.053240623
96	0xbd8ac00a	-0.0677491
97	0xbce4dd2a	-0.02793749
98	0xbd9691d5	-0.07352034
99	0x3d08f79a	0.033439256
100	0x3d9ad9ef	0.07561099
101	0x3d3df192	0.046372958
102	0x3cabb5b8	0.020960674
103	0xbd26193a	-0.0405514
104	0x3d7ab982	0.06121207
105	0xbd2f22ef	-0.042757925
106	0x3d95d225	0.073154725
107	0x3c161a20	0.009161502
108	0x3c84eb80	0.016225576
109	0xbdb2feae	-0.087399825
110	0xbd95bd4c	-0.07311496
111	0x3da597ad	0.080855705
112	0x3d834b09	0.06410796
113	0x3ca31934	0.019909479
114	0x3dad25cf	0.08454477
115	0xbd38075d	-0.044928897
116	0x3dadd0ad	0.08487067
117	0x3dabffdb	0.0839841
118	0x3cb51e88	0.022109285
119	0x3d1d749e	0.038441293
120	0x3d490816	0.049079977
121	0xbbe1bb70	-0.0068887994
122	0xbc6d0ea8	-0.014468826
123	0x3c99b75c	0.01876419
124	0xbda5f7cb	-0.081039034
125	0xbd03738e	-0.032092623
126	0x3ad610c0	0.0016331896
127	0x3d86cccd	0.065820314
128	0xbd3be9e0	-0.045877337
129	0x3c040a80	0.008059144
130	0x3ce04c48	0.027380124
131	0xbbda6130	-0.0066644177
132	0x3d712d9a	0.05888138
133	0xbd8e42c0	-0.06946325
134	0x3d3d87d6	0.04627212
135	0xbd8da430	-0.06916082
136	0xbab35f80	-0.0013685077
137	0xbd6f52e4	-0.05842866
138	0xbd8b9226	-0.06814985
139	0x3d8cff6b	0.068846546
140	0xbd60bf8b	-0.05487017
141	0x3d93cbf7	0.072166376
142	0xbcb97890	-0.022640496
143	0x3cd80754	0.026370682
144	0x3bb07b80	0.005385816
145	0x3cc752e0	0.02433151
146	0x3d9c11c9	0.0762058
147	0xbda24502	-0.079233184
148	0xbc9d43d0	-0.019197375
149	0xba069d00	-0.0005135089
150	0x3ccc6424	0.024950095
151	0xbd61e45d	-0.055149425
152	0xbd7d390a	-0.061821975
153	0xbd7582c1	-0.05993915
154	0xbd004347	-0.03131416
155	0x3c933f8c	0.017974637
156	0xbd3fc620	-0.046819806
157	0x3da36f2b	0.07980188
158	0x3d772586	0.06033852
159	0x3c8e8e54	0.017401852
160	0xbd9b1817	-0.07572954
161	0x3da8b085	0.082367934
162	0xbb425ea0	-0.0029658452
163	0xbdaf7fb5	-0.0856928
164	0x3d57b75a	0.052665092
165	0xbd032779	-0.032020066
166	0x3d9f9f3f	0.07794046
167	0x3bb00c50	0.0053725615
168	0xbc621b10	-0.0138003975
169	0xbda81423	-0.08206966
170	0x3d4ded1a	0.050274946
171	0x3c9d2168	0.019180968
172	0x3d3d6412	0.046238013
173	0x3ca67188	0.020317808
174	0x3a6c8900	0.00090231
175	0x3c5a6370	0.013329372
176	0xbd80a25f	-0.0628097
177	0x3b9e0f50	0.0048236027
178	0xbda66c66	-0.08126144
179	0xbcaea600	-0.02131939
180	0xbd0ca81f	-0.03434002
181	0xbad5cd00	-0.0016311705
182	0xbd0885fd	-0.033330906
183	0x3d8848bf	0.066545
184	0x3c1758b8	0.009237461
185	0xbb3e7120	-0.0029059127
186	0xbcb83d1c	-0.022490077
187	0x3ca76e5c	0.020438366
188	0xbc2f2750	-0.010690525
189	0xbdadc4c3	-0.08484795
190	0x3bea12e0	0.0071433634
191	0xbd57b340	-0.05266118
192	0xbc788b50	-0.015169933
193	0xbd9dee17	-0.07711428
194	0x3d35b0e2	0.04435814
195	0x3db0a32d	0.08624873
196	0x3d33000e	0.043701224
197	0x3d82fe77	0.063961916
198	0xbc6c3430	-0.014416739
199	0xbd43d938	-0.047814578
200	0xbd156df2	-0.036481805
201	0xbcdb675e	-0.026782688
202	0x3c390610	0.011292949
203	0x3cf1c6b0	0.029513687
204	0x3d9f5d1d	0.07781432
205	0xbd9111f3	-0.07083502
206	0xbb9f3fe0	-0.0048599094
207	0x3d018478	0.031620473
208	0x3c6857c0	0.0141810775
209	0xbd1d7245	-0.038439054
210	0xbd95715b	-0.072970115
211	0xbd855444	-0.06510213
212	0xbd03af89	-0.032149825
213	0xbd5b2b93	-0.053508352
214	0x3d525926	0.05135455
215	0x3ba7af60	0.005117342
216	0x3c1f8898	0.009737156
217	0xbd7b86c2	-0.061407812
218	0xbd0b8c48	-0.03406933
219	0xbc3b6c20	-0.011439353
220	0xbd5ad004	-0.053421035
221	0x3d3bb73a	0.045829035
222	0x3c5d32c8	0.013500877
223	0xbd753b45	-0.059870977
224	0xbd84ad5f	-0.064783804
225	0xbd3cc8e7	-0.046090033
226	0xbc671d00	-0.014106035
227	0x3be298f0	0.006915204
228	0xbd559b49	-0.052150045
229	0xbab0c000	-0.0013484955
230	0x3bbde520	0.005795136
231	0x3da757d1	0.081710465
232	0xbd26f988	-0.040765315
233	0x3d1d2442	0.038364656
234	0x3d9f4793	0.077773236
235	0x3d8e7a8f	0.0695697
236	0xbd523eb1	-0.05132932
237	0x3d27ec32	0.040996738
238	0xbd62f453	-0.055408787
239	0x3c9941b4	0.018708088
240	0x3d8048f1	0.062639125
241	0x3c906904	0.0176282
242	0xbd566ed5	-0.05235179
243	0x3c890a00	0.016728401
244	0x3c938660	0.01800841
245	0xbd3379b9	-0.043817256
246	0xbcf56d5a	-0.02995937
247	0xbd54c91e	-0.051949613
248	0xbd44f897	-0.048088636
249	0xbd98bc1c	-0.07457754
250	0xbd59cc76	-0.053173505
251	0xbd83c524	-0.06434086
252	0x3d772d52	0.060345955
253	0xbd0908f0	-0.03345579
254	0x3d7112b6	0.058855735
255	0x3d959b5f	0.07305025

fc_policy.bias f4 [128]
0	0xbd8cf877	-0.068833284
1	0xbd0584b4	-0.03259726
2	0x3bb53a50	0.005530633
3	0x3cff201c	0.03114324
4	0x3da10f11	0.07864202
5	0x3d9f3cb3	0.07775249
6	0xbcacc9b4	-0.021092273
7	0x3c053e18	0.00813248
8	0xbd9d4908	-0.07679945
9	0x3d5a8e8a	0.053358592
10	0x3c3d22f8	0.011543982
11	0x3d3d94ee	0.04628461
12	0xbd155368	-0.036456496
13	0x3d43d4e2	0.047810443
14	0xbdb20227	-0.08691817
15	0xbd656436	-0.05600377
16	0x3d63d55a	0.05562339
17	0x3d2de9ae	0.042459182
18	0xbca20bfc	-0.019781105
19	0x3c87ef7c	0.016593687
20	0xbd9ab7e1	-0.07554603
21	0xbd7183d6	-0.05896362
22	0xbc9f2554	-0.01942698
23	0xbc077108	-0.008266695
24	0x3d5a1e26	0.053251408
25	0xbcff6db2	-0.031180236
26	0xbd93c00e	-0.07214366
27	0xbdb1082d	-0.086441375
28	0x3c289240	0.010288775
29	0x3d267c6a	0.040645994
30	0xbd9f0cfd	-0.07766149
31	0xbd6c277c	-0.057654843
32	0x3d6fbd62	0.05853022
33	0x3d605286	0.0547662
34	0xbd95fa7d	-0.073231675
35	0xbd4cf479	-0.050037835
36	0x3d8edde9	0.0697592
37	0x3d311f5e	0.043242805
38	0xbc884b54	-0.016637482
39	0x3d41a022	0.047271855
40	0x3d8127a7	0.06306391
41	0x3d849bd3	0.064750336
42	0xbd95cbda	-0.07314272
43	0xbd77f606	-0.06053736
44	0x3db2a6b7	0.087232046
45	0xbd03134c	-0.032000825
46	0x3d949949	0.07255799
47	0x3d55b64e	0.052175812
48	0xbd04945d	-0.032368053
49	0xbd8dc96d	-0.069231845
50	0xbd3244a9	-0.04352251
51	0xbc29d950	-0.010366753
52	0xbc0dc270	-0.008652315
53	0x3da3987d	0.07988069
54	0x3d556be2	0.05210484
55	0xbcc512a8	-0.024056748
56	0x3d503a42	0.05083681
57	0x3c2aca38	0.010424189
58	0x3c29f8c8	0.0103742555
59	0x3d044232	0.03228969
60	0xbcb410e4	-0.02198071
61	0x3c063e88	0.00819362
62	0x3d2fdad2	0.042933293
63	0x3d15683a	0.03647635
64	0xbd01ca4c	-0.031687066
65	0xbd8e829f	-0.06958508
66	0xbc762d68	-0.015025474
67	0x3db18d7d	0.08669565
68	0xbd82dfbb	-0.063903295
69	0xbcd913ac	-0.026498638
70	0x3d6f9a86	0.058496974
71	0xbd37c592	-0.044866152
72	0x3d06dbe8	0.032924563
73	0xbcd5bcbe	-0.026090976
74	0x3d384322	0.044985898
75	0xbd9df6fd	-0.07713125
76	0xbcd713aa	-0.026254494
77	0xba9ab880	-0.0011804253
78	0xbc5d96d0	-0.013524726
79	0x3d25b85a	0.040459014
80	0x3d81f185	0.06344894
81	0xbd78ed7e	-0.060773365
82	0x3d44e5f2	0.048070855
83	0xbd8d443f	-0.068977825
84	0x3d4f274e	0.050574593
85	0x3d6d11f6	0.057878457
86	0xbbd07920	-0.0063620955
87	0x3d90dc4d	0.07073269
88	0xbdb11574	-0.0864667
89	0x3cfc8584	0.030825384
90	0xba616580	-0.00085981935
91	0x3db339b1	0.08751238
92	0x3ad99100	0.0016599
93	0x3b0e74a0	0.0021736994
94	0x3d33906e	0.04383891
95	0x3d2e6342	0.04257513
96	0x3d9e755f	0.077372305
97	0x3d5ab1d2	0.05339224
98	0x3d7d61e2	0.061860926
99	0x3d15a292	0.036531992
100	0x3b40c960	0.0029416904
101	0x3d7f50ba	0.062332846
102	0x3da66cdf	0.08126234
103	0x3aa6c840	0.0012724474
104	0x3d4003ba	0.046878554
105	0xbb20bfe0	-0.002452843
106	0xbc1e3440	-0.009656012
107	0x3cfe37fc	0.031032555
108	0xbd48c31e	-0.049014203
109	0xbd05927b	-0.032610398
110	0xbd4fea4a	-0.050760545
111	0xbd8e3f89	-0.06945712
112	0x3c7e1c10	0.01550962
113	0xbcd28e28	-0.025702551
114	0xbd2f9015	-0.042862017
115	0x3d60bf4e	0.054869942
116	0x3d8ac967	0.06776696
117	0x3d55cd9e	0.052198045
118	0xbc00fd70	-0.007872924
119	0x3d89beb7	0.06725829
120	0x3badfe10	0.0053098276
121	0x3d54e1e2	0.05197323
122	0xbc5f0820	-0.013612777
123	0xbc4d5a78	-0.012533776
124	0xbd7490ec	-0.05970852
125	0xbdb3ca04	-0.08778766
126	0xbd1b7272	-0.03795094
127	0x3d2bf4a6	0.04198136

fc_policy_output.weight f4 [1, 128]
0	0x3c767c80	0.015044332
1	0x3c89a734	0.016803361
2	0x3c873490	0.016504556
3	0xbd864506	-0.06556134
4	0xbbb99910	-0.0056639984
5	0x3d45488e	0.048164897
6	0xb9096c00	-0.00013105571
7	0x3d91f03f	0.071259014
8	0xbcdfad9e	-0.027304467
9	0xbc513398	-0.012768649
10	0xbca88bd4	-0.020574488
11	0x3d3b8dd6	0.045789562
12	0xbc264458	-0.01014813
13	0x3d97dd4b	0.07415255
14	0x3d9b4f2f	0.075834624
15	0x3d18a7ee	0.037269525
16	0xbd4ef580	-0.050527096
17	0xbd7978fa	-0.060906388
18	0xbd7d291c	-0.061806783
19	0xbcbd0614	-0.023074187
20	0xbbb66c50	-0.005567111
21	0x3ca8dba4	0.020612545
22	0xbd8585aa	-0.06519635
23	0xbd2f86a5	-0.042853016
24	0x3c938300	0.018006802
25	0x3c80e710	0.01573518
26	0x3cff23e4	0.031145044
27	0x3cf4cd00	0.029882908
28	0xbb238080	-0.0024948418
29	0x3d7770ce	0.060410313
30	0x3da7d215	0.08194367
31	0x3d5239f2	0.051324792
32	0xbd88e29f	-0.066838495
33	0x3dac2939	0.084063
34	0x3da1a967	0.07893639
35	0x3cfd99fc	0.030957215
36	0x3d846ebd	0.06466434
37	0x3cb40b34	0.021977998
38	0xbd5f9b99	-0.05459175
39	0xbd817ebf	-0.06323003
40	0xbdb28f6d	-0.087187625
41	0xbca36328	-0.019944742
42	0x3d27a68a	0.04093031
43	0x3cf32f24	0.029685564
44	0x3d41b296	0.047289453
45	0x3d3dc976	0.046334706
46	0x3d2e6b62	0.042582877
47	0x3b857890	0.00407321
48	0xbc0be230	-0.008537814
49	0xbce62a3c	-0.02809631
50	0xbda73d0a	-0.08165939
51	0x3cb7a92c	0.022419535
52	0xbca5d3b0	-0.020242542
53	0xbd78f035	-0.060775954
54	0x3d6f5a42	0.058435686
55	0x3da2066d	0.07911382
56	0x3d8eabe1	0.06966377
57	0x3d528d86	0.0514045
58	0xbca17ac8	-0.019711867
59	0xbce65ee4	-0.02812142
60	0x3da43c03	0.08019259
61	0xbdac5900	-0.08415413
62	0xbd9316b6	-0.07182066
63	0xbd65f8e2	-0.056145556
64	0xbd894c74	-0.067040354
65	0xbd2bc30f	-0.04193407
66	0x3c281940	0.010259926
67	0x3d9ef6b5	0.077618994
68	0xbd172a60	-0.036905646
69	0xbd333075	-0.043747384
70	0x3d71c42a	0.059024967
71	0x3bf1df30	0.0073813424
72	0xbbc9b9e0	-0.006156191
73	0x3d538956	0.051644646
74	0x3cd0dfec	0.0254974
75	0x3c928d58	0.017889664
76	0x3d425866	0.047447585
77	0x3cdafab4	0.026730873
78	0xbcd167f8	-0.025562271
79	0x3d5eba52	0.054376908
80	0x3b2db5a0	0.0026505962
81	0xbbaedc00	-0.0053362846
82	0xbc8cc02c	-0.017181478
83	0x3d9af6a9	0.07566578
84	0xbc4a4aa8	-0.012346901
85	0xbd7c8c30	-0.06165713
86	0xbd66cedc	-0.05634962
87	0x3db3c26f	0.0877732
88	0xbd965e43	-0.07342198
89	0xbd771308	-0.060320884
90	0xbcc3ef98	-0.023917958
91	0x3cb7bde4	0.022429414
92	0xbd8990dc	-0.06717083
93	0x3d8430b9	0.064546056
94	0xbd1676e7	-0.036734488
95	0x3d51e72a	0.051245846
96	0x3c8228b0	0.015888542
97	0x3d4296c2	0.047507055
98	0x3d1b2a22	0.037881978
99	0xbd85cef4	-0.06533614
100	0x3d0642ec	0.032778665
101	0x3ce3cdb4	0.027808048
102	0x3d3f3b5e	0.046687476
103	0xbd94a6b5	-0.07258359
104	0xbc914260	-0.017731845
105	0xbb7eece0	-0.0038898513
106	0x3b78f160	0.0037985668
107	0x3d8bb67b	0.06821915
108	0x3d9b6d8f	0.07589256
109	0x3d28b26e	0.04118579
110	0x3d17bdb6	0.037046157
111	0xbca11694	-0.019664086
112	0x3d85ce1b	0.06533452
113	0xbd1bf915	-0.03807934
114	0xbd250160	-0.040284514
115	0xbd14d9e0	-0.036340594
116	0xbc1ade18	-0.009452365
117	0x3c43fe88	0.01196254
118	0x394d8400	0.00019599497
119	0xbbb7bd00	-0.0056072474
120	0xbd9a942a	-0.07547791
121	0x3d1cc2ba	0.038271643
122	0x3d04ae8c	0.032393023
123	0xbc289ce8	-0.010291316
124	0xbc95e894	-0.018299378
125	0x3d3d8aa2	0.04627479
126	0xbd37135e	-0.044696204
127	0x3c81cb4c	0.01584401

fc_value.weight f4 [128, 128]
0	0xbd84364d	-0.064556696
1	0x3d64cefe	0.055861466
2	0x3c220838	0.009889655
3	0xbd3b851a	-0.045781232
4	0x3b249ea0	0.0025118962
5	0xbda94490	-0.082650304
6	0xbdb26f0b	-0.08712586
7	0xbd8683a0	-0.06568074
8	0xbd9f2a81	-0.07771779
9	0xbd92f7ed	-0.07176194
10	0x3d01cf64	0.031691924
11	0xbdac68b3	-0.08418407
12	0x3d0032c2	0.031298406
13	0xbd8c4f25	-0.06851033
14	0x3db33267	0.08749848
15	0xb9904700	-0.0002751872
16	0x3d917c71	0.071038134
17	0x3c6eeba0	0.014582545
18	0xbce33d52	-0.0277392
19	0x3c8c3a78	0.017117724
20	0x3db0ac1b	0.086265765
21	0xbd6e51fa	-0.058183648
22	0xbcaa77bc	-0.020809047
23	0xbd4ac17e	-0.049500935
24	0x3d4ea0be	0.050446264
25	0xbcab91b8	-0.020943508
26	0xbd914d9a	-0.070948794
27	0x3d5d0c22	0.05396665
28	0xbd82f4bc	-0.06394336
29	0x3cb74038	0.02236949
30	0x3d9717cd	0.073775865
31	0x3d8481cb	0.064700685
32	0x3d140b66	0.036143683
33	0x3d8d96b9	0.06913514
34	0xbd578e20	-0.052625775
35	0x3d62631a	0.055270292
36	0xbd6b8bb6	-0.057506286
37	0xbd516339	-0.051120017
38	0xbca962fc	-0.020677082
39	0xbd57b37b	-0.0526614
40	0xbd1d3b78	-0.038386792
41	0x3caaa86c	0.020832263
42	0xbcb83334	-0.022485353
43	0x3ca906bc	0.020633094
44	0xbdab10f8	-0.08352846
45	0x3d9c598d	0.07634268
46	0xbd816549	-0.06318147
47	0xbdb01202	-0.08597185
48	0xbd2ea3f1	-0.042636815
49	0x3c3bd210	0.011463657
50	0x3d514562	0.05109156
51	0xbd93b080	-0.07211399
52	0x3db4c36f	0.088263385
53	0x3c5100b0	0.012756512
54	0xbd99841b	-0.074959
55	0x3d6453ee	0.055744104
56	0x3c4b7be8	0.012419678
57	0xbce611fe	-0.028084751
58	0x3d46098e	0.048348956
59	0xbd2e3101	-0.042527203
60	0x3d9acbf9	0.07558436
61	0xbbd1e7b0	-0.006405793
62	0xbdaeca0e	-0.085346326
63	0xbd0e07cb	-0.0346754
64	0xbd56b41e	-0.052417867
65	0x3d6fa6fa	0.05850885
66	0xbd870284	-0.06592277
67	0x3d9082bb	0.07056185
68	0x3d0c6626	0.034277104
69	0x3d3bbbbe	0.04583334
70	0xbcf27c9e	-0.029600438
71	0x3c8524e4	0.016252942
72	0xbd0d5b81	-0.034511093
73	0x3d1f62aa	0.038912453
74	0x3daaccd9	0.08339853
75	0xbc15e610	-0.009149089
76	0x3cd79350	0.026315361
77	0x3c1dbd10	0.009627596
78	0xbda8e194	-0.082461506
79	0xbd8afc18	-0.06786364
80	0x3d60b6e6	0.054861926
81	0xbda7eb35	-0.08199159
82	0xbd6ba9c9	-0.057534967
83	0x3d2785fa	0.040899254
84	0x3d87257d	0.06598947
85	0x3d7336ce	0.059378438
86	0xbda56a9c	-0.08076975
87	0x3d6355ba	0.055501677
88	0x3d67b516	0.05656918
89	0xbdabb46a	-0.083840206
90	0xbd8552ca	-0.065099314
91	0xbd1c7462	-0.03819693
92	0x3c523c08	0.012831695
93	0xbc9f6de4	-0.01946158
94	0xbc35f2f8	-0.011105292
95	0x3d5d2996	0.053994738
96	0xbce94846	-0.028476845
97	0xbd057fcf	-0.03259259
98	0x3af33ac0	0.0018556938
99	0x3dae5b11	0.08513463
100	0xbcd32770	-0.025775641
101	0x3cd7b46c	0.026331149
102	0x3d866c3d	0.065636136
103	0xbbaad620	-0.005213514
104	0x3cf54bb4	0.029943325
105	0x3b9cd1a0	0.0047857314
106	0x3d42fe2a	0.04760567
107	0x3c4d9f10	0.0125501305
108	0xbd397c41	-0.045284513
109	0xbad22340	-0.0016032234
110	0xbd5078c3	-0.050896417
111	0xbd47f2ad	-0.048815418
112	0x3dad6a0b	0.08467492
113	0xbcbb3d44	-0.022856362
114	0x3d6d4932	0.057931133
115	0x3db0f24f	0.08639967
116	0x3dac8a0f	0.0842477
117	0xbc0442a0	-0.008072525
118	0x3c820638	0.015872106
119	0xbbf512d0	-0.0074790493
120	0xbd8be1cf	-0.06830179
121	0xbd0448d6	-0.032296024
122	0x3c116088	0.0088731125
123	0x3b669360	0.0035183057
124	0xbd96f46f	-0.07370841
125	0xbd2fdae1	-0.04293335
126	0xbd343597	-0.04399642
127	0xbd11fb17	-0.03563985
128	0x3c9a9b78	0.018872961
129	0x3cccdcf0	0.025007695
130	0xbd4ca106	-0.04995825
131	0xbd54beb0	-0.051939666
132	0xbd87c3e1	-0.06629158
133	0x3cfdcd54	0.030981697
134	0xbd756a64	-0.059915915
135	0x3bdbbef0	0.006706111
136	0xbb940ef0	-0.0045183823
137	0x3c0064a8	0.007836498
138	0x3db3be67	0.08776551
139	0x3d2d6aa2	0.04233802
140	0x3d7401c2	0.05957199
141	0xbd462ffe	-0.048385613
142	0x3c6aa900	0.014322519
143	0x3d6ad272	0.057329603
144	0xbd99b68f	-0.075055234
145	0xbcfff84a	-0.031246323
146	0x3b726720	0.0036987737
147	0xbd026149	-0.03183106
148	0xbcf99318	-0.030465648
149	0x3d5eedaa	0.054425873
150	0x3da41f2f	0.0801376
151	0x3d23e77a	0.040015675
152	0x3dab498f	0.083636396
153	0x3d8de2ff	0.06928062
154	0xbd50681f	-0.050880548
155	0x3d9eaa1f	0.07747292
156	0xbdace8c6	-0.084428355
157	0xbca055d4	-0.019572176
158	0xbc66ab28	-0.014078893
159	0xbc237bf8	-0.009978287
160	0x3d321c4e	0.043484025
161	0x3d98857d	0.07447336
162	0x3c432060	0.011909574
163	0xbcbd659c	-0.02311974
164	0x3ce14c70	0.027502269
165	0xbc8eed0c	-0.017447017
166	0x3c1f0718	0.009706281
167	0xbd663450	-0.056202233
168	0xbd613a45	-0.05498721
169	0xbb1bd9a0	-0.0023780838
170	0x3d1c5aa2	0.03817237
171	0xbd92581e	-0.07145713
172	0xbd3f4d8d	-0.046704818
173	0x3c7a10b0	0.015262768
174	0xbd9f8095	-0.07788197
175	0xbb231820	-0.0024886206
176	0xbd4a6874	-0.04941602
177	0xbc076258	-0.008263193
178	0xbd935bfa	-0.071952775
179	0xbd73df3e	-0.059539072
180	0x3c4e5e60	0.012595743
181	0x3bf1b7e0	0.007376656
182	0xbd5b2e8f	-0.0535112
183	0xbd7d0958	-0.06177649
184	0x3c5cf7e0	0.013486832
185	0x3d81e469	0.06342394
186	0x3cfb39ec	0.030667268
187	0xbdb0f6c3	-0.08640816
188	0xbcad5a38	-0.021161184
189	0x3c57dec8	0.013175674
190	0xbd8cd67e	-0.06876849
191	0xbd954825	-0.07289151
192	0xbd735cdc	-0.05941473
193	0x3a52d100	0.00080420077
194	0xbdb1c0c5	-0.08679346
195	0x3d97da03	0.07414629
196	0xbda9e9fe	-0.082965836
197	0x3d3f0fb2	0.046645828
198	0xbce6d012	-0.028175388
199	0x3ce5e79c	0.028064542
200	0x3c8d811c	0.017273478
201	0xb7980000	-1.8119812e-05
202	0x3d73bda6	0.059507035
203	0xbc6bd2e8	-0.014393546
204	0xbcc27160	-0.023735702
205	0x3d911e43	0.0708585
206	0x3d10f102	0.035386093
207	0xbd9e154d	-0.077189066
208	0x3d31336e	0.043261938
209	0xbd6055f9	-0.05476949
210	0x3db2f64f	0.08738386
211	0xbd8a142e	-0.0674213
212	0xbcf059f4	-0.029339768
213	0x3cd1edc0	0.025626063
214	0xbcafdf14	-0.021468677
215	0xbd9fe058	-0.07806462
216	0xbd8f83bd	-0.07007549
217	0x3d4194ba	0.047260977
218	0x3d374816	0.04474648
219	0x3d54c7be	0.0519483
220	0xbd2d82c2	-0.04236103
221	0xbc6fe628	-0.014642276
222	0xbdb02be8	-0.086021245
223	0x3d909171	0.07058991
224	0x3c8783b4	0.016542293
225	0xbcc6917c	-0.024239294
226	0xbd038092	-0.032105036
227	0x3d9ad95b	0.075609885
228	0xbd54ec60	-0.051983237
229	0x3d191ae6	0.037379168
230	0xbd807d9a	-0.062739566
231	0x3d01d80a	0.03170017
232	0x3d6a36a6	0.057181023
233	0x3a9b0180	0.0011826009
234	0x3da720eb	0.081605755
235	0xbd441de5	-0.047880072
236	0xbda4c117	-0.080446415
237	0xbd47253a	-0.048619486
238	0x3d7ae012	0.061248846
239	0xbdb21893	-0.086960934
240	0xbd166865	-0.036720652
241	0x3c3fa0f0	0.011696085
242	0x3d909d79	0.070612855
243	0xbd104025	-0.035217423
244	0xbac55a00	-0.0015056729
245	0xbca30ce4	-0.019903608
246	0x3db3caeb	0.08778938
247	0xbcf5e392	-0.03001574
248	0x3cd0d478	0.025491938
249	0xbd867987	-0.06566148
250	0x3c387d28	0.011260308
251	0x3d378332	0.044802852
252	0xbd32a7ca	-0.043617047
253	0x3d528f02	0.051405914
254	0xbcc3df9c	-0.023910336
255	0xbbb86710	-0.0056275204

fc_value.bias f4 [128]
0	0x3c9686f4	0.018374898
1	0xbd87ab03	-0.06624415
2	0xbd75a096	-0.0599676
3	0x3da372a9	0.07980854
4	0xbda1bc1d	-0.07897208
5	0x3cf1fdb8	0.029539928
6	0xbd9179c8	-0.07103306
7	0x3c752698	0.014962815
8	0xbdab1656	-0.083538696
9	0xbd278dd9	-0.04090676
10	0x3c1f86e8	0.009736754
11	0x3cf4fec8	0.029906645
12	0xbc022b78	-0.007944934
13	0xbda05870	-0.07829368
14	0x3cf91ac0	0.030408263
15	0x3d88a1f5	0.06671516
16	0x3d17a9d6	0.037027203
17	0xbd7d6f5b	-0.061873775
18	0x3d072cd8	0.03300175
19	0xbcc608b0	-0.024174064
20	0xbd5f6c1f	-0.05454647
21	0x3c99f8e4	0.018795438
22	0xbd39d51b	-0.04536925
23	0xbc70f8a0	-0.014707714
24	0x3c5603e8	0.013062455
25	0x3d71722a	0.058946766
26	0x3d2f88be	0.042855017
27	0x3d606f26	0.0547935
28	0xbdb41139	-0.087923475
29	0xbd437dca	-0.047727384
30	0xb9e33e00	-0.00043343008
31	0xb79ac000	-1.8447638e-05
32	0x3d273a86	0.040827297
33	0x3ce19c90	0.027540475
34	0xbd671156	-0.056413017
35	0x3d349b26	0.044093274
36	0x3da9fcc3	0.083001636
37	0x3d380c06	0.04493334
38	0xbda5ff99	-0.08105392
39	0x3d09b53a	0.033620097
40	0x3db02155	0.086001076
41	0x3d80a40f	0.06281292
42	0x3d34ebc6	0.044170164
43	0x3c8dd398	0.01731281
44	0x3da5895f	0.08082842
45	0x3cba1968	0.022717193
46	0xbd3b1c71	-0.04568142
47	0x3d290932	0.041268535
48	0xbd08d702	-0.033408172
49	0x3da8472d	0.08216701
50	0xbc908a04	-0.017643936
51	0xbd8e6043	-0.06951954
52	0xbd4a55ba	-0.04939816
53	0xbd0cbb1d	-0.034358133
54	0x3d15509c	0.03645383
55	0x3da5aefd	0.08090017
56	0x3d6957be	0.056968443
57	0xbc193c28	-0.009352721
58	0xbd2772e4	-0.040881053
59	0xbc91e650	-0.017810017
60	0x3c85d084	0.01633478
61	0x3bb2a980	0.005452335
62	0x3d40357e	0.046926014
63	0x3d09dd14	0.033658102
64	0xbc7c7718	-0.015409254
65	0x3d9fcb8b	0.078024946
66	0xbd98ba38	-0.074573934
67	0xbd4241e7	-0.04742613
68	0xbc9a931c	-0.018868975
69	0xbcabf10c	-0.020988964
70	0x3d912fed	0.07089219
71	0xbd62125e	-0.055193298
72	0xbd240693	-0.040045332
73	0xbda1db6e	-0.07903181
74	0xbd63e824	-0.05564131
75	0x3c8a27bc	0.01686465
76	0xbd502a19	-0.050821397
77	0xbd1546c5	-0.036444444
78	0x3b936bd0	0.0044989362
79	0x3d2fe772	0.042945333
80	0xbd7ab346	-0.061206125
81	0xbd203de5	-0.039121527
82	0xbd1a5c8d	-0.03768592
83	0x3da1a7c9	0.078933306
84	0xbd0051e5	-0.0313281
85	0xbce05780	-0.027385473
86	0xbd4a67a3	-0.049415242
87	0xbcf51e5c	-0.029921703
88	0x3ad68e40	0.0016369298
89	0x3c7ecaa0	0.015551239
90	0xbd87ab99	-0.066245265
91	0x3d4797d2	0.04872877
92	0x3d69d8ea	0.05709163
93	0x3ce85544	0.02836097
94	0x3ce12a04	0.027485855
95	0xb9c72900	-0.00037986785
96	0xbb71b4c0	-0.0036881417
97	0x3d37de56	0.04488977
98	0xbd7cc042	-0.06170679
99	0xbdb0d084	-0.08633521
100	0x3cda719c	0.026665501
101	0xbd8ca2b3	-0.0686697
102	0x3c3e5180	0.011616111
103	0xbd93bb35	-0.07213441
104	0xbc148b38	-0.009066395
105	0xbd1deaf4	-0.038554147
106	0xbce4c246	-0.027924668
107	0x3cba27f4	0.02272413
108	0x3d71d232	0.05903835
109	0xbd68791f	-0.056756135
110	0x3daeb1f9	0.08530039
111	0x3ce3cf0c	0.027808689
112	0x3db250b1	0.08706797
113	0x3d4b099e	0.04956972
114	0x3d0722ba	0.032992102
115	0x3d820db9	0.06350274
116	0xbcf94a06	-0.030430805
117	0x3c5161f8	0.012779705
118	0x3d78ee22	0.060773976
119	0xbd399166	-0.04530468
120	0x3d155138	0.03645441
121	0x3d3d164e	0.04616385
122	0xbc415e30	-0.011802241
123	0xbc992254	-0.018693127
124	0x3c2416c8	0.010015197
125	0xbd2da9a0	-0.042398095
126	0x3d0d797e	0.034539692
127	0xbd96f920	-0.073717356

fc_value_output.weight f4 [1, 128]
0	0x3da568ef	0.08076655
1	0x3d848f17	0.06472605
2	0x3d3da30a	0.046298064
3	0xbd014cf6	-0.031567536
4	0x3d93e56f	0.07221495
5	0xbd075830	-0.033043087
6	0xbd8554d8	-0.06510323
7	0xbd156c4a	-0.036480226
8	0xbc196650	-0.009362772
9	0x3d2dd3c2	0.042438276
10	0xbc0b46b8	-0.008500747
11	0xbdaad559	-0.08341474
12	0x3d8af303	0.06784632
13	0xbda14c68	-0.078759015
14	0x3d63052e	0.05542486
15	0xbd8378d2	-0.06419529
16	0x3d1dbbee	0.0385093
17	0xbcbbfd50	-0.022947937
18	0xbd663214	-0.056200102
19	0xbd557309	-0.05211166
20	0x3bc8fb30	0.0061334595
21	0xbc77f7c0	-0.015134752
22	0xbc36c188	-0.01115454
23	0xbd8cb8ad	-0.068711616
24	0xbd0775a5	-0.03307118
25	0xbb8f3a10	-0.0043709353
26	0x3da7c2e3	0.081914686
27	0x3cc96300	0.02458334
28	0x3cb3104c	0.021858357
29	0xbce5e5ee	-0.02806374
30	0x3d38b25e	0.04509198
31	0x3ca69a18	0.02033715
32	0x3cd879dc	0.026425295
33	0xbc6b8dd8	-0.01437708
34	0xbcf7703c	-0.030204885
35	0xbd96230e	-0.07330905
36	0xbcdaa918	-0.026691958
37	0xbd55400e	-0.05206304
38	0xbd8d938f	-0.0691291
39	0x3d4dd1a2	0.05024875
40	0x3d3a8426	0.045536183
41	0xbcc6d740	-0.024272561
42	0xbd948671	-0.07252205
43	0xbd6a40cc	-0.0571907
44	0x3cfb46d4	0.030673422
45	0x3c472e58	0.012157045
46	0x3cae7154	0.021294273
47	0x3daa6313	0.08319678
48	0xbc74b0d0	-0.0149347335
49	0xbcb2fa5c	-0.021847896
50	0xbd66841d	-0.056278337
51	0x3b236480	0.002493173
52	0xbda5621f	-0.08075356
53	0xbd535b3f	-0.05160069
54	0x3d555ab2	0.052088447
55	0xbd364cbd	-0.044506777
56	0xbc79a1a0	-0.015236288
57	0x3d0c616e	0.034272604
58	0xbd8fa6ac	-0.07014212
59	0x3c9f8124	0.019470759
60	0xbd665435	-0.05623265
61	0x3d9c9581	0.07645703
62	0x3cff7978	0.03118585
63	0x3cc03024	0.023460455
64	0xbcb94464	-0.022615619
65	0xbb7095e0	-0.0036710426
66	0xbd7a74ee	-0.06114667
67	0xbd07d05a	-0.033157684
68	0xbd43d9c5	-0.047815103
69	0x3b92d540	0.004480988
70	0x3d22117a	0.03956745
71	0xbd457899	-0.048210714
72	0xbd02e6a4	-0.031958237
73	0xbca61638	-0.020274267
74	0x3d254d62	0.040357
75	0x3d1df81e	0.0385667
76	0x3bcb0520	0.0061956793
77	0x3d16492a	0.03669087
78	0x3d9f1b97	0.07768934
79	0xbd1c0649	-0.03809193
80	0xbd29b29e	-0.04143011
81	0xbc8f838c	-0.017518781
82	0x3ca45adc	0.020062856
83	0x3d6bbf36	0.0575554
84	0x3d70072e	0.058600597
85	0x3d94ef13	0.07272162
86	0x3d0d646e	0.034519605
87	0xbdaa44f9	-0.08313937
88	0xbdaec1a1	-0.085330255
89	0x3c968b28	0.018376902
90	0xbd2bd12e	-0.041947536
91	0xbd13f092	-0.036118098
92	0x3d0ef66e	0.034902982
93	0xbd125131	-0.03572196
94	0xbd36f3c2	-0.04466606
95	0xbb85cd20	-0.0040832907
96	0xbcc0a418	-0.023515746
97	0x3c847d30	0.016172975
98	0x3d9d2f6d	0.076750614
99	0xbd8cbe55	-0.068722405
100	0xbdb33586	-0.08750443
101	0x3cc8ea88	0.024525896
102	0xbdb30a1f	-0.08742165
103	0x3d163c4e	0.036678605
104	0xbd104b94	-0.035228327
105	0x3d107f24	0.0352775
106	0xbc870d14	-0.016485728
107	0xbadbac40	-0.0016759709
108	0x3cf8093c	0.03027784
109	0xbd4bee01	-0.049787525
110	0x3d04006a	0.032226957
111	0x3d936177	0.07196324
112	0xbcc21eb8	-0.023696288
113	0xbd437308	-0.047717124
114	0x3da88f4d	0.082304575
115	0x3dace29b	0.08441659
116	0x3d4cfa0a	0.050043143
117	0x3d8045dd	0.06263325
118	0x3d8bc8c1	0.068254
119	0xbd3c81bd	-0.046022166
120	0x3b73ae60	0.0037182793
121	0x3d2376ca	0.039908208
122	0xbd66d37a	-0.056354024
123	0xbd9a877b	-0.07545372
124	0xbd75f266	-0.060045622
125	0x3d8b7c4b	0.068108164
126	0x3d6d1d76	0.057889424
127	0xbc845ed4	-0.016158499
