A3C/model_weights.pth (torch, 15051 bytes, 7 tensors)

pi1.weight f4 [128, 4]
00000000: b60e 54bf 095a 0ec0 b22a bbbf 63e0 30be
00000010: dce0 773e 4845 0240 1791 933f 0511 cb3f
00000020: 1b94 d0bd 0dd1 d9bf 64ee 89be 6ca3 8fbf
00000030: 05ca 4e3f 1e33 df3f 8fa9 823f b47f 453f
00000040: 0e26 8bbf e53a a53f c805 6a3f 462e d93f
00000050: 9908 753f 8a2f 9d3f 2198 ab3f d91d 833f
00000060: 75ff 403f 3c2e eabf 4389 543f 84c6 a2bf
00000070: 5e9d 10bf 87b0 eabf 6b67 93bf b5b1 80bd
00000080: 2463 9cbd 32b7 cb3f 4a8f 983f ee52 8ebf
00000090: cad0 4b3f 4e05 d2bf ab69 843f 7a68 8fbf
000000a0: 1090 a4bd ea21 fcbf e795 013f 494c 95bf
000000b0: 0d38 683e 2544 cd3f a044 3f3f 59d8 d93f
000000c0: 929d a5be c717 aa3f 6fe0 c53f 51d3 0c3f
000000d0: b230 a03e af16 11be aaad 32be 83bc 803f
000000e0: ca5c b3be a53b f73f d454 403f 759d af3f
000000f0: c922 22bf 7f86 e2bf 79b7 bcbf 7130 02bf
00000100: 18eb 733e d5c0 e73f 9324 423f d748 963f
00000110: 1d7d 94be f51a d63f 36f9 2c3f 20f4 793f
00000120: 3271 60bf d8a8 f2bf ba6d abbf 4ac1 c8be
00000130: a0f3 263f f65a 943f b0ca 943f 8dd4 b6bf
00000140: b5a0 71bd 6b2c 9dbf 2d90 8dbf 6d0b 923e
00000150: 8533 063f 2dc7 c23f e63a c93e 28b8 e33f
00000160: 7109 13be 19c6 c73f b4ca 493f 449e 523f
00000170: 5df0 2c3f 05f5 a2bf 24ee 543f 8500 97bf
00000180: dde3 90bf e5d5 16c0 72b9 99bf 51b3 81bd
00000190: 60df 853e 60eb a83d e97e 983f 4b59 29bf
000001a0: 8720 5c3f 0da4 06c0 73a7 023f 5807 c3bf
000001b0: 7dd0 653f 5c40 fb3f 7fb2 f7bd bdaa 7f3f
000001c0: 7d1c a9bd f123 65bf 98a6 65be d9c6 9e3e
000001d0: d850 b13f a9fb ee3f 57c1 523f 1c90 023f
000001e0: 615f 40bf d4f7 07c0 6105 a2bf fc48 44be
000001f0: 8050 02bd a4a2 1440 348d 743f c06c b83f
00000200: 8510 cf3d 1249 1dc0 fe7a 4f3e 3f59 c0be
00000210: 99f9 5cbf f6f8 01c0 e297 d0bf bd75 87bd
00000220: ec96 9e3f bb34 1f3f c0c2 67be 0ec7 333f
00000230: 13f6 bdbe b91f ba3f f2ba 9a3f eb2d ce3f
00000240: 4690 10bf 4090 dbbf ac33 8cbf 7485 0f3e
00000250: 4763 49bf 930b 81bf bf20 93bf 9f12 b13e
00000260: 0946 efbe a5e8 f6bf 6748 c7bf 2094 52bf
00000270: 55b6 173f 957d 02c0 a97a 763f f2f9 84bf
00000280: bebc 1e3e ceac 1940 5814 943f f281 7a3f
00000290: ec8c 593f 9a82 03c0 4ed1 19bd 73f6 1fbf
000002a0: 04e9 b53f 3566 fa3f d0cd 603f fe3e 0a3f
000002b0: b0f1 7cbe 909c 0bc0 23e9 b5bf 77a7 abbe
000002c0: 6e13 acbf 6cef cbbf a712 c3bf d513 8d3e
000002d0: dcb7 3ebd 366e 0740 6072 593f 363d bc3f
000002e0: 9186 20bf bef3 ffbf 0899 6dbf 8194 b53e
000002f0: ea83 9dbe 4473 02c0 3f01 91bf cd17 e83d
00000300: ae97 903e 0074 1840 af27 8b3f b54c 953f
00000310: f7a8 3e3f be14 bd3f f0e4 003f b8bb 913f
00000320: f899 443f 51b8 ea3f 5f70 103f c90c b13f
00000330: 36c1 21bf 4125 1140 d4f1 a4bd 14ac 793f
00000340: 5f8d 3ebf 1d31 18c0 36c7 7abf eddc ce3e
00000350: ee62 dbbe e9ed bfbf 6b34 4d3e 5fd6 57bf
00000360: e068 303e a54a a1bf 07ef a93f 8974 9fbf
00000370: 5d23 69bf 8a4d b4bf d497 c2bf 175d b8bf
00000380: 521f 51be 3c71 babf 3e06 c83d f0c6 a9bf
00000390: a588 723f 3736 0040 347d cb3e c0e6 173f
000003a0: f566 1a3f 8fca ee3f ff32 6f3f b2a6 823f
000003b0: c9a9 583f 8c51 dfbf d952 413f 51d3 aabf
000003c0: 40b3 633f 6712 b73f 81db 883f 2a1e c03f
000003d0: c156 663e 0bcf e63f c05e 7c3f 3bda d43f
000003e0: 3cde 41bf e7c4 c7bf b8f9 c2bf d34b 81bf
000003f0: d291 7b3f 529b 953f 30af c73f 0c16 193c
-0.8283495 -2.2242453 -1.4622405 -0.17273097 0.24206871 2.0354786 1.1528653 1.5864569
-0.10184499 -1.7016922 -0.2693969 -1.1221747 0.8077701 1.7437475 1.0207995 0.77147985
-1.0870988 1.2908598 0.9141507 1.6967247 0.95716244 1.2280133 1.3405801 1.0243484
0.75389796 -1.829536 0.83021945 -1.2716832 -0.56490123 -1.8335122 -1.1515936 -0.06283895
-0.07636097 1.5915282 1.1918728 -1.1119058 0.7961546 -1.6407869 1.0344747 -1.1203759
-0.0803529 -1.969785 0.5061936 -1.1663905 0.22677632 1.6036421 0.7471409 1.7019149
-0.3234678 1.3288506 1.5459117 0.55009943 0.31287152 -0.1416881 -0.1744906 1.0057529
-0.3503173 1.9315077 0.7512944 1.3719927 -0.6333433 -1.7697295 -1.4743491 -0.50855166
0.2382015 1.8105723 0.7583706 1.1740979 -0.29001704 1.6726977 0.67567766 0.9763813
-0.8767272 -1.8957777 -1.3392861 -0.39209968 0.6521549 1.1590259 1.1624355 -1.4283615
-0.058991153 -1.227918 -1.1059624 0.28524342 0.5242236 1.5217034 0.39302748 1.7790575
-0.1435907 1.560733 0.78824925 0.82272744 0.67554265 -1.2731024 0.83175874 -1.1797034
-1.1319538 -2.356805 -1.2009718 -0.0633303 0.26146984 0.08248019 1.191373 -0.66151875
0.8598713 -2.1037629 0.5103676 -1.5236616 0.8977125 1.9629016 -0.12094592 0.998699
-0.08257387 -0.8950797 -0.22426832 0.31011084 1.3852797 1.867055 0.82326263 0.51001143
-0.75145537 -2.1245012 -1.2657892 -0.19168466 -0.031815052 2.3224268 0.9552796 1.4408188
0.10110573 -2.4575849 0.20261762 -0.3756809 -0.86318356 -2.0308204 -1.6296351 -0.06614254
1.2389808 0.62189835 -0.22632885 0.7022561 -0.37101802 1.4540931 1.2088301 1.6107763
-0.56470144 -1.7153397 -1.0953269 0.14015752 -0.7866711 -1.0081657 -1.1494368 0.3458452
-0.4673312 -1.9289747 -1.556897 -0.8225727 0.5926259 -2.038915 0.96280915 -1.0388777
0.15501687 2.4011722 1.1568708 0.9785453 0.84980655 -2.0548463 -0.037553124 -0.62485427
1.4211736 1.9562441 0.87814045 0.5400237 -0.24701571 -2.1814308 -1.4211773 -0.33526203
-1.344343 -1.5932441 -1.5240067 0.27554193 -0.04656206 2.1161017 0.8494015 1.470618
-0.6270533 -1.9996259 -0.9281163 0.35464862 -0.30764705 -2.0382853 -1.1328505 0.11332665
0.28240722 2.38208 1.0871485 1.1664034 0.7447657 1.4771955 0.5034933 1.1385412
0.7679744 1.8337499 0.56421465 1.3832027 -0.6318544 2.2678988 -0.080539376 0.97528195
-0.74434465 -2.3779976 -0.9796022 0.40402928 -0.42848915 -1.499448 0.20039527 -0.8431148
0.17227507 -1.2600905 1.327607 -1.2457439 -0.91069585 -1.4086163 -1.5202584 -1.4403409
-0.20422104 -1.4565806 0.097668156 -1.3263836 0.94739753 2.003309 0.3974396 0.5933647
0.6031335 1.8655566 0.9343719 1.0207121 0.8463407 -1.7446761 0.7551704 -1.3345739
0.8894539 1.4302491 1.0691987 1.5009205 0.22494031 1.8031934 0.9858208 1.6629099
-0.7572973 -1.5606965 -1.5232458 -1.0101265 0.9826938 1.1688025 1.5600338 0.009343635

pi1.bias f4 [128]
00000000: 7f5a 203f d077 903e 0cd9 91bf b1e2 2dbf
00000010: f618 2dbf 38f4 80bf 6470 2e3e b3b1 1fbf
00000020: ad95 08bf d879 fe3d dc64 4fbf ae9b 1d3e
00000030: b0c0 81bf a69d 00c0 ac09 253e 342d c43d
00000040: ac95 63bd 51ba b8be c2f1 a33e 0fe3 b3bf
00000050: b6fc c9bf a2e3 f33e a19b 073f d9b8 7abe
00000060: 8c47 ad3e 6379 d7bf fe6b 883e b091 a03e
00000070: 73cb 98bf 5d5e 13bf 7b71 fb3d ad98 833e
00000080: 042f 653f 43d9 8c3e 4e20 9dbf 0a01 293e
00000090: 81e6 92bf 07bb 37bd 6389 f8be 446a c63e
000000a0: 372f 113f f46d b63e eb4c 5abd 8b4a 4f3e
000000b0: 46f2 e13e 5af7 c13d 3eb0 223f a504 cb3e
000000c0: 5cab ed3e 9ed7 b43e 9ee6 333e 8b80 143f
000000d0: fa82 6e3f a42c 90bf 48b4 963e 6eca 1abf
000000e0: 40fd cbbf be69 883d b99e 963d 0dfe 64be
000000f0: 4be8 54bd a5cf 423e 7ada e8be 1bb2 c7bf
00000100: c6af fa3e 2f53 493f e669 65bf aea9 14bf
00000110: 5d09 f53e 8b28 323e 7219 63be 2e94 26bf
00000120: 157c 92be 93a5 99bf c9f0 7cbd d676 b6be
00000130: ef8e 32bd 611f d0bf a755 a4be 7ca7 b93e
00000140: b815 143e d1e3 703e 1ca7 cfbe 7592 183f
00000150: 42dd 3fbf 11c5 9ebe 8ba9 e53e 54dc 85be
00000160: 5360 1c3f 6522 d23d 1ac2 743d a324 1c3f
00000170: 8f05 a7be fcfb bc3e e166 2e3e 6978 e7be
00000180: 12f4 b93e 4182 3bbf 6b13 323f 32b7 ac3e
00000190: 1756 0e3f 2539 d2be 4bf2 a7bf ac56 bb3e
000001a0: 670c b53e b968 afbd 5cce 8d3e f840 3c3f
000001b0: db24 273f 66c0 bdbd 7001 063f 5153 f0bf
000001c0: cd7a 933e 86fe 883e 08ad d73e 5076 75bf
000001d0: b6d1 b93d e3dc 7d3e 4501 66be 346a bfbf
000001e0: 1bbf 18bf fa03 c13e b98c 8e3e fdc2 43bf
000001f0: b525 38bf d74f 903d 268c bc3e eee4 a8be
0.62638086 0.2821641 -1.1394362 -0.6792403 -0.6761621 -1.007453 0.17035061 -0.6238052
-0.5335339 0.124255836 -0.81013274 0.15391418 -1.0136929 -2.009622 0.16116971 0.09578934
-0.05556266 -0.36079648 0.32020384 -1.4053668 -1.5780246 0.47634608 0.52971846 -0.24484576
0.33843648 -1.6833919 0.26644892 0.3136115 -1.1937088 -0.5756586 0.12277504 0.2570242
0.89524865 0.27509508 -1.2275484 0.16504303 -1.1476594 -0.044856098 -0.48542318 0.3875295
0.5671267 0.35630763 -0.05329601 0.2024328 0.44130152 0.09471007 0.63550174 0.3965198
0.464198 0.35320753 0.17568442 0.5800864 0.93168604 -1.1263623 0.2943442 -0.60465133
-1.5936661 0.06660794 0.07354493 -0.22362538 -0.051979344 0.19024523 -0.45479184 -1.5601228
0.4896223 0.78642553 -0.89614713 -0.5807141 0.47858706 0.17398278 -0.22177675 -0.65069854
-0.28610292 -1.2003654 -0.061753068 -0.3563754 -0.043593343 -1.6259576 -0.32096598 0.36260593
0.1446141 0.23524405 -0.40557182 0.59598476 -0.7494699 -0.31009725 0.44855914 -0.2614466
0.6108448 0.102604665 0.059755422 0.60993403 -0.32621428 0.36911 0.17031433 -0.45209053
0.36319023 -0.73245627 0.6956088 0.33733517 0.5560011 -0.41059223 -1.3120817 0.36589563
0.35361025 -0.08564896 0.27696502 0.73536634 0.6529061 -0.09265213 0.52345943 -1.8775426
0.28804627 0.26756686 0.421242 -0.95883656 0.09073202 0.24791293 -0.22461422 -1.4954286
-0.59666604 0.37698346 0.27841738 -0.76469404 -0.71932536 0.07046478 0.36825675 -0.3298716

v1.weight f4 [128, 4]
00000000: 931c f63e 82d3 fdbd 53e3 bc3e b1de 0f3e
00000010: 042c 9b3f 3da1 e5bd 7e2d 553f ac9a 9cbe
00000020: 6af6 063f d506 983e 7a4a 113f 5ac3 ca3d
00000030: b9a1 293f 27b5 ae3d 1e54 153f dee3 ddbe
00000040: 9d05 28bf c935 be3f c850 6d3f 4699 113f
00000050: 999a b13f 7889 36bf f027 263f aa70 98be
00000060: c450 1b3f 8c80 b43e eb50 e63d a7c4 163d
00000070: f96c 683f 39ed a8be c2a7 823f 773d c0be
00000080: 0218 86be cff6 debf 305c 8fbf 16e1 09bd
00000090: 455c 933f 2523 353f 1baa 9b3e de28 37bd
000000a0: 1d33 843f cf0d 57be c92a 283f a866 02be
000000b0: b99b 7d3f f249 143f edff e5be 037a d53e
000000c0: 0a5b 403f 1462 8e3f f5a6 3c3e ffc9 f53e
000000d0: 5d8c 1e3f e478 bb3f b19b 6c3e 9dff db3e
000000e0: 0eef 963e 19c5 703e 0cee 883f 2ce5 9a3e
000000f0: f721 9a3f fb6d 17bf e9be 883e ebe4 30bf
00000100: d6df ef3e 5a45 e53f b766 87ba 9989 eabd
00000110: 50d5 953f e3f6 a93f b94e 273f 070a 743e
00000120: a7b2 f4bd ab61 b53f 8eed 0f3f a94f cf3e
00000130: aca6 863f 5018 d93f e022 093f ee52 183d
00000140: 4b81 b83f f40a c33f 1316 6b3f 264e 1a3f
00000150: 61f5 263f c11f c53f 8065 723f 6c07 063f
00000160: 9902 2c3f f511 eb3f 1b76 2f3f aeef d33e
00000170: 5d8b 443f ded5 8b3d f8b9 b33e e46f bcbd
00000180: afc6 293f a8e7 123f dbcc 043f cf0f 80bd
00000190: 8780 5f3f d797 633e 1318 2f3f 3cea fb3e
000001a0: d88e af3f 0dac 843e c56b b43e e1bd adbd
000001b0: 7fd1 013f 2eee 633f 0e07 213f f13c 8b3e
000001c0: 8765 74bf 0bef c7bf 5e4e 93bf 1435 abbf
000001d0: 770d 8e3f 8951 593e cd07 073f f95e 29bf
000001e0: 85f0 a63f c864 aa3e 1b95 86bf 586a 773e
000001f0: f923 bc3f ff17 d2be 78eb f03e 59dd 76be
00000200: 3697 a03f 543f b0bd 268a dabe e6ce f13d
00000210: b270 813f 3c63 4a3f 76d6 593f 3285 d1be
00000220: 8244 783f 9017 f63e af47 123f 5d97 abbe
00000230: b5c1 3e3f 2e89 c43e 3d0a d23d 1e73 03bf
00000240: 87bf 213f 303c a03f e39c 24bf 822d a13e
00000250: 2a73 c73e 4fa4 043f c55c ee3e d991 213f
00000260: 6e5e aa3f b2c4 8abe 326e 78bf 5cca 803e
00000270: 8e30 863f 7cbd 393e 1696 463e 262b fdbe
00000280: 4d70 5b3f 987d 003e aa30 113f 3e1e 803e
00000290: 0f5e 6e3f db90 4c3f 6949 9a3e 90f5 443d
000002a0: f823 773f ede4 703f b1f0 623d 5939 1a3f
000002b0: 3397 463f e15c 953f b04a afbd 070d a5bb
000002c0: 06c0 653f f947 813e 59e4 163f 8412 e23e
000002d0: 2b24 053f ea2f a73f 765a c83e 8fe5 e83e
000002e0: 5e28 7b3f a59d 7ebd 6f50 29bd 77c6 9ebd
000002f0: df60 183f 2811 0540 3da3 783f 0470 153f
00000300: 9d37 293f 9956 5f3e af7d 483f 961d 0a3e
00000310: 2289 433f af76 613e e0ba 143f 1aa3 b73c
00000320: 520f 4a3f 8bfd 693f 7262 ea3e d241 f73e
00000330: d940 403f 7f09 2a3d 36fb a93e f1b3 e4be
00000340: 1a80 623e 21d2 0140 c034 2c3e 4eda 3a3e
00000350: bda7 863f 6cb1 383f 6c06 97be 0da2 eb3e
00000360: c5f6 bf3f 662d 03bd 0103 063f 80fc a3be
00000370: b9f7 903f 140e 1ebe f9a5 04be 5418 ee3c
00000380: ecf5 0d3f 874c e33f 8a90 66bf 9048 9e3e
00000390: 70ae d83e 6a87 883f edf3 c4be 0d9e 0a3f
000003a0: 8727 5f3f 45de c73e 08e8 20bd 6600 cebe
000003b0: c487 9b3f 92ed a23e 93aa a4bd 47c9 313e
000003c0: c183 aa3f 8655 2fbe 0054 1a3f b9e5 dcbe
000003d0: 0a6c 193f 18a3 583f 989c 973e 1776 e43e
000003e0: 588f 063d 083a 523f 61eb efbf 270c aa3f
000003f0: c9a3 523f d0d7 033f e043 4c3f 4e50 86bd
0.48068675 -0.123938575 0.36892185 0.14049794 1.2122808 -0.112123944 0.8327254 -0.30586755
0.5271975 0.29692712 0.5675427 0.099005416 0.66262394 0.08530646 0.5833148 -0.4333791
-0.65633565 1.4860164 0.9270139 0.568745 1.3875304 -0.7130351 0.6490469 -0.29773456
0.60670114 0.35254323 0.11245903 0.036808636 0.9079128 -0.32993487 1.0207446 -0.37546894
-0.26190192 -1.741907 -1.1200008 -0.033661924 1.1512533 0.7075675 0.30403218 -0.04471671
1.0328099 -0.21001361 0.65690285 -0.12734473 0.9906574 0.5792533 -0.44921818 0.4169465
0.75138915 1.1123681 0.18423064 0.48005673 0.6193293 1.4646268 0.23106267 0.42968455
0.2947926 0.23512687 1.0697646 0.3025297 1.2041615 -0.5915219 0.26708153 -0.690993
0.4685046 1.791179 -0.0010330294 -0.11452026 1.1705723 1.3278469 0.65354496 0.2383195
-0.11948138 1.4170431 0.56221855 0.40490463 1.0519614 1.6960545 0.5356884 0.037188463
1.4414457 1.5237718 0.9183056 0.60275495 0.6521817 1.5400316 0.94686127 0.52355075
0.67191464 1.8364855 0.6853959 0.413938 0.7677515 0.06827901 0.3510282 -0.09201029
0.6631879 0.5738473 0.51875085 -0.06253015 0.8730549 0.22225891 0.6839611 0.49202144
1.3715467 0.25912514 0.35238472 -0.08483482 0.5071029 0.8903531 0.6290139 0.27194932
-0.9546742 -1.5619825 -1.1508291 -1.3375573 1.1097859 0.2122251 0.5274628 -0.6616054
1.3042151 0.33280015 -1.0514253 0.2416166 1.4698478 -0.41033933 0.47054648 -0.24107875
1.2546146 -0.08605829 -0.42683524 0.11807041 1.0112517 0.7905767 0.85092866 -0.40921932
0.96979535 0.48064852 0.5714063 -0.3351392 0.74514323 0.3838591 0.10255859 -0.5134753
0.6318287 1.2518368 -0.6430189 0.31480032 0.3895505 0.51813215 0.46555153 0.6311317
1.3310068 -0.27103192 -0.97043145 0.25154388 1.0483568 0.18138689 0.1939319 -0.49446982
0.8571823 0.1254791 0.5671488 0.25023073 0.9311227 0.7990853 0.30134133 0.04808575
0.9653926 0.94099313 0.055405322 0.60243756 0.7757446 1.1668969 -0.085591674 -0.0050369534
0.8974613 0.25250223 0.5894218 0.4415475 0.5200831 1.3061497 0.39131516 0.4548764
0.9810847 -0.06216206 -0.041336473 -0.07752698 0.59522814 2.0791721 0.9712408 0.5837405
0.66100484 0.21810378 0.7831678 0.13487849 0.76381123 0.2201793 0.5809765 0.02241664
0.78929627 0.914025 0.45778233 0.48292404 0.7509895 0.041512962 0.3319947 -0.44668534
0.2211918 2.0284503 0.16816998 0.18247339 1.051994 0.72145724 -0.29497087 0.46022072
1.4997183 -0.032025717 0.52348334 -0.3202858 1.1325599 -0.15435058 -0.12953939 0.029064335
0.5545337 1.7757729 -0.900643 0.30914736 0.42320585 1.0666325 -0.3846735 0.54147416
0.8716969 0.39036766 -0.039283782 -0.4023468 1.2150807 0.31821877 -0.08040347 0.17361937
1.3321458 -0.17122468 0.60284424 -0.43144014 0.5993048 0.8462386 0.2961166 0.44621345
0.032851547 0.821198 -1.8743707 1.3284959 0.82281166 0.5150118 0.7979107 -0.06558286

v1.bias f4 [128]
00000000: dfa1 e43f 5d72 c03f f26d c03f 487a 8b3f
00000010: 1094 fabf ea65 c53f 4151 d73f bb5e 053f
00000020: 2607 ffbf 4334 423f f34f 7f3f 299f bc3f
00000030: 5e8d a63f 0adc a13f 90fe 943f b6eb a73f
00000040: 94bc ac3f e75c 01c0 5382 e6bf f9ab fcbf
00000050: 089c eebf dd89 d1bf c072 fdbf 8707 913f
00000060: a647 523f b454 873f 4c8e dd3f d4ad 923f
00000070: 77f8 02c0 6619 8e3f 6538 b53f e53e c13f
00000080: 02b7 bf3f 3849 b53f 7f6d c43f cdce d33f
00000090: 518e b33f 4913 ad3f 7498 a43f 18b0 d93f
000000a0: eeb0 0d3f 1643 8e3f 4751 6c3f 9adf c63f
000000b0: 2a59 c33e 5c35 07c0 505a ad3f 7b73 af3e
000000c0: a032 c33f 290d 9b3f 59de 3a3f 65f6 943f
000000d0: d731 7b3f 9f00 d23f b447 a63f 36e5 ee3f
000000e0: a627 af3f 849e 9e3f 4160 c53f e21c c23f
000000f0: 33a3 ac3f b626 9fbf 7482 b93e 95fe 313f
00000100: 3c25 b03f 0e4c 883f 9b9b d33f 9ef6 e13f
00000110: 6286 e63f 18c7 ac3f e24c d93f b391 e23f
00000120: eadb b03f 38d4 3c3f bbb3 e7bf 3feb cf3f
00000130: 1d1b af3f 5e43 313f 2de9 b13f 079a d13f
00000140: 9fdb a03e 05ca 213f 79ed b83f 9f9b 893f
00000150: 8fa5 803f 3935 b93f 77a6 c23f bc8f 09c0
00000160: 4b0a 4c3f 8b12 b83f fd5a cdbf 0a25 6a3f
00000170: a8a8 953f dcf5 d53f f5e2 cd3f 29eb e3bf
00000180: ec1a 8f3f a68b 353f ed35 a4bf 97c6 d7bf
00000190: ba4a b43f e1d0 07c0 7ad6 ef3e 7ba8 c3bf
000001a0: be73 00c0 8f24 323f 7d0c c13f a587 d13f
000001b0: 5fda a93f dd17 f7bf 922e cd3f 8e46 bf3f
000001c0: 7239 3f3f 52f7 d03f a1f6 f8bf e116 c13f
000001d0: 0757 c43f c91b efbf 2d5f 9d3f 3a9c ed3f
000001e0: 945c 983f bcb9 b73f 8dbb 77bf 418d 2e3f
000001f0: 1eff fcbf 0196 bd3f 4df0 f93f 00fc 8b3f
1.7861899 1.5034901 1.5033553 1.0896692 -1.9576435 1.5421727 1.6821672 0.5209767
-1.9924057 0.75860995 0.9973137 1.4736072 1.3011892 1.2645276 1.1640186 1.3118808
1.349505 -2.0212953 -1.8008522 -1.9739982 -1.8641367 -1.6370198 -1.9800644 1.1330422
0.82140577 1.0572724 1.730905 1.1459298 -2.046415 1.1101501 1.4157835 1.5097319
1.4977725 1.416297 1.5345916 1.6547486 1.4027807 1.352151 1.2859025 1.7006865
0.553481 1.1114223 0.9231152 1.5536988 0.38153964 -2.1126318 1.3543186 0.34267792
1.5249825 1.2113391 0.72995526 1.1637694 0.98122925 1.640644 1.2990632 1.86637
1.3683975 1.2392125 1.5419999 1.5165064 1.3487304 -1.2433689 0.3623234 0.69529086
1.3761363 1.064821 1.6531862 1.7653387 1.800976 1.3498259 1.6976588 1.7700714
1.3817112 0.7376132 -1.8101724 1.6243666 1.3680149 0.6924342 1.3899285 1.637513
0.31417558 0.6319888 1.4447471 1.0750617 1.0050524 1.4469367 1.5207051 -2.1493979
0.79703206 1.4380659 -1.6043392 0.9146277 1.1692095 1.6715655 1.6084887 -1.780614
1.1180091 0.7091621 -1.2828957 -1.685748 1.4085305 -2.122124 0.4684332 -1.5285791
-2.0070643 0.69587034 1.5081936 1.636952 1.3269767 -1.9304157 1.6029837 1.4943407
0.7469703 1.6325476 -1.9450265 1.5085107 1.5339059 -1.8680354 1.229467 1.8563302
1.1903253 1.4353557 -0.96770555 0.68184286 -1.9765356 1.4811403 1.9526459 1.0936279

pi.weight f4 [13, 128]
00000000: c9f6 943e d1e7 c3bf 58db a9bd e295 a2bf
00000010: a458 19bf f38c aabf 201b e53e 3fb7 8ebf
00000020: 048e cdbf 7831 eabe 77e3 e1bd 7835 8abf
00000030: d148 c5bf 8079 0339 3ad6 93bf 80cc 2dbf
00000040: d393 abbf 775b 7ebf 3225 48bf bb8d c0bf
00000050: 2a99 883f bf89 b2bf e243 4ebf 21df 6fbf
00000060: e135 aabe 26da bbbf e5e7 853f b621 bebf
00000070: 7302 463f 3dea babf 4891 04be e8f9 c2bf
00000080: ab1f 713f 4bc5 133f d228 ccbf c73c a4bf
00000090: 54ba a5bf 0d00 a1bf 7abc 30bf eebf 5ebf
000000a0: 98af b6bf 2398 43bf 6481 b3bf 25a4 703f
000000b0: f541 54bf 764b b4bf a71b 223f 9938 56bf
000000c0: 7068 b7bf 0381 c8bf 733d c7bf 70d5 c5bf
000000d0: 41ea 8fbf 3f24 45be 2a19 003f 5d99 aebf
000000e0: d50f 84bf 8aca c5bf 0615 94bf f11c 963e
000000f0: 221f bebf 5c5d adbf 71e5 80bf a208 a9bf
00000100: 8ef6 61bf df05 c6bf f0f5 ccbf 4dd9 cebf
00000110: 97cf 9abf 6b1d b5bf 8525 c9bf 503d f4be
00000120: 2e4d f53e 3eb2 78bf 55c2 9fbe bdb1 bdbf
00000130: 1a21 b6bf 8696 653f 57c6 b7bf 227a bdbf
00000140: 9bf9 ac3f 109c 93bf 7b62 46be b69b a9bf
00000150: 3a12 673e 0726 853d 2f3b b8bf e585 d5bf
00000160: 4491 443f 3a39 afbf 0f65 4a3f 1c14 47bf
00000170: af6d 48bf 2fa3 0f3f 457f a9bf 428b dbbf
00000180: 0bfd abbf b0a3 afbf 7654 42bf 6284 1a3f
00000190: 70b7 8d3f 6c3e 3e3e d846 a6be bafd b0bf
000001a0: a938 a23f a778 ad3f eb80 89bf 76f1 85bf
000001b0: 85cf cbbf b788 cbbf 6bfc 88bf f484 bbbd
000001c0: 5a3b cdbf 0e8f 6fbf a37e 7ebe 29b1 8abf
000001d0: 31f7 cabf 6f0f e43e 15b2 353e b843 cdbf
000001e0: dbcd c5bf 34e9 bfbf b8e0 183f 9b48 c5bf
000001f0: de85 5fbf e2c4 2abf 183d ff3e 6ab5 34bf
00000200: d091 a43f a57b cfbf 757f bb3f 86d3 17be
00000210: eb5e a63f 2ab0 56bf b350 a23f 7116 903f
00000220: b011 bebf 16f8 923f 185f c53f 00ee 1fbf
00000230: 22c9 87bf d78c 973f 3048 1cbf 177f 433f
00000240: b968 94bf 7011 253f 7c5b 6e3f 0bca c2be
00000250: 30f0 c33f 911b cbbf 5de4 b9bf 547a 9e3f
00000260: 1a9a a33f 6a36 bebf 0da7 a13f 747d 9cbf
00000270: 46a6 f03e e129 bbbf a2e4 963f 41ed cebf
00000280: d135 9e3f 05a9 833f fae5 51bf a7e7 3bbf
00000290: 90ba e03e b89d 25be 8f83 8f3f e978 943f
000002a0: e976 e5bf 828e a53f 6bce d1bf 1e35 a43f
000002b0: e7be 583e c9cd b3bf 77e7 a23f 58b7 563f
000002c0: 7605 e2bf a8ea d1bf 525a dbbf 2e8f 9ebf
000002d0: e42c 8d3f 015e ba3f d9c6 b23f a471 ab3e
000002e0: ef79 a13f a6f7 c5bf a5e4 5e3e 49d9 a33f
000002f0: 5bd3 8ebf ac48 b7bf c61c 443f cb14 ccbc
00000300: 1681 1b3f 5c56 d8bf 20e4 c1bf e6ad 053f
00000310: ecf8 103f 45d4 25bf c379 b5bf 58b9 913f
00000320: 2d8c cf3f c91d 10bf 8cdd 963f b300 543f
00000330: 6497 87bf 1f7e 3d3e c6dd 4cbf d083 b1bf
00000340: 2fa9 c23f 9c7f da3e 4e84 cd3e 5219 d0bf
00000350: 55eb b73d 52bc ae3f 9152 a0bf abc3 c2bf
00000360: 521e 873d f231 cbbf 0693 ab3f 4df2 4f3f
00000370: 4d04 8f3f 92a6 a23f 0afa b0bf 2352 4fbf
00000380: ec31 cbbf db90 9b3f 480c 833f 160d 9c3f
00000390: 9681 b33f 2a2f b03f 8610 1c3e d5ed a2bf
000003a0: a984 ce3f 58c8 d13f 785e 213f e64f ff3e
000003b0: fbe9 c7bf cc10 2abf 1987 333f 1712 7d3f
000003c0: e440 c4bf 50bd 63bf a8f9 b43f 74ad 873f
000003d0: aa34 c9bf 7f5f 203f e64c ba3f bc11 d5bc
000003e0: b37b 62bf 11c1 dfbf 9d28 b43f 70fc 9fbf
000003f0: 3191 0f3d 7ea8 d6bb b2b4 aa3f b9d8 fe3e
0.29094532 -1.530512 -0.082937896 -1.2701991 -0.5990088 -1.3324264 0.44747257 -1.1149672
-1.6058965 -0.45740867 -0.110297136 -1.0797567 -1.5412847 0.00012538396 -1.1549752 -0.6789017
-1.3404487 -0.99358314 -0.78181756 -1.5043253 1.0671742 -1.3948287 -0.8057233 -0.9369984
-0.3324423 -1.4675949 1.0461394 -1.4854038 0.7734749 -1.4602734 -0.12946045 -1.5232515
0.94188946 0.5772292 -1.5949957 -1.2831048 -1.2947488 -1.257814 -0.6903759 -0.8701161
-1.4272337 -0.7640402 -1.4023862 0.94000465 -0.8291314 -1.4085529 0.63323444 -0.8368011
-1.4328747 -1.5664371 -1.5565628 -1.5455761 -1.1243364 -0.19252108 0.500384 -1.3640553
-1.0317332 -1.5452435 -1.1568916 0.29318956 -1.4853251 -1.3544116 -1.007002 -1.320576
-0.8826684 -1.5470542 -1.6012554 -1.6160065 -1.2094601 -1.4149603 -1.5714575 -0.47703028
0.47910446 -0.97146976 -0.3120295 -1.4819866 -1.4228852 0.89682806 -1.4357404 -1.4802897
1.3513674 -1.1532001 -0.19373505 -1.3250644 0.22565547 0.06501394 -1.4393061 -1.6681486
0.7678416 -1.3689339 0.79060453 -0.7776506 -0.78292364 0.56108373 -1.3241965 -1.7151873
-1.3436598 -1.3721828 -0.7591013 0.6035825 1.1071606 0.185785 -0.32475924 -1.3827431
1.2673541 1.3552445 -1.0742468 -1.0464313 -1.5922705 -1.5901097 -1.0702032 -0.09156218
-1.6033738 -0.9357766 -0.24852996 -1.0835315 -1.5856687 0.44543025 0.17743714 -1.6036291
-1.5453447 -1.4993043 0.59717894 -1.5412782 -0.8731364 -0.6670667 0.49851298 -0.70589316
1.2856998 -1.6209608 1.4648272 -0.14826784 1.2997717 -0.83862555 1.2680877 1.1256849
-1.4849148 1.148196 1.5419645 -0.62472534 -1.0608256 1.1839856 -0.6104765 0.763658
-1.1594459 0.6447973 0.93108344 -0.38044772 1.5307674 -1.5867788 -1.4522816 1.2381082
1.2781403 -1.4860356 1.2629105 -1.2225785 0.47001857 -1.4622155 1.1788523 -1.6166154
1.2360173 1.0285956 -0.8199154 -0.7340035 0.43892336 -0.16173446 1.1212023 1.1599399
-1.7926913 1.2934115 -1.6391119 1.282871 0.21166573 -1.4047176 1.2726887 0.8387351
-1.7657917 -1.6399736 -1.7136939 -1.2387445 1.1029325 1.4559938 1.3966933 0.33485138
1.2615336 -1.5466201 0.21766908 1.2800685 -1.115825 -1.4319053 0.76606405 -0.024912259
0.60743845 -1.6901355 -1.5147743 0.5221847 0.56629825 -0.6477702 -1.4177784 1.1384687
1.6214653 -0.5629545 1.1786361 0.82813567 -1.0593076 0.18505143 -0.800259 -1.3868351
1.5207881 0.42675483 0.40140003 -1.6257727 0.08980433 1.3651221 -1.2525197 -1.5215963
0.0659758 -1.5874617 1.3404243 0.81229097 1.1173187 1.2707083 -1.3826306 -0.80984706
-1.587461 1.2153581 1.0238123 1.2191494 1.4023921 1.3764393 0.15240678 -1.272883
1.6134235 1.6389265 0.6303477 0.49865645 -1.561828 -0.6643188 0.7012802 0.9885573
-1.5332303 -0.8896074 1.4138689 1.0599809 -1.5719197 0.62645715 1.4554718 -0.026009433
-0.8847 -1.7480794 1.4074894 -1.2498913 0.035050575 -0.0065508476 1.3336394 0.4977472

pi.bias f4 [13]
00000000: fd9b a6bf 3523 d3bd 3b9e 113f 48d1 7e3e
00000010: 1653 353f d136 6e3f a2ea 233f 47db d53e
00000020: 1782 cebf 1ca2 b9bf e3be d6be c33c b7bf
00000030: f6cc 223e
-1.3016354 -0.103094496 0.56882066 0.24884522 0.70829904 0.93052393 0.64029896 0.41768858
-1.613345 -1.4502597 -0.4194251 -1.4315418 0.15898499

v.weight f4 [1, 128]
00000000: 47f7 0e3e da92 af3f b87b 933b 2d01 78bd
00000010: 6578 c63f d8f1 e23b 2ab0 1d3d de17 27be
00000020: c4cd d33f 5dc9 7e3f e06d a13f ff99 2f3f
00000030: 31ab aa3f 1660 a63f a82d 8a3f 400a 2cbd
00000040: bb02 dfbd 9993 b33f 2d46 ca3f ea3d b03f
00000050: 0470 cb3f 6b21 633f d64a 943f 987c a4be
00000060: b9a9 773f 22f9 5e3f a39f 133e 4bf3 903f
00000070: f830 d33f ae98 803f 358b 633f 8e2d a8bd
00000080: 59cd 62bd 4858 be3f d3d1 573f d5aa 0d3e
00000090: 4946 513f 3bdd a93f 6a2b bf3d 2327 2a3e
000000a0: ac27 0c3f 4465 a23f eef9 8c3f 5e04 0dbd
000000b0: 491d a63e fb16 c43f 2e26 debd db9a 3e3e
000000c0: 42a3 95bc ee1b 8fbe a2f2 323f 2517 9abe
000000d0: b66f 28be 6010 d53e 7298 9ebe 4a33 c43e
000000e0: fd36 333e e9f2 ad3d 2aa7 bbbc deb5 b4bd
000000f0: 1e47 333f b23c 7b3f 5d06 86bf 943d 533f
00000100: bc31 023f 22ff 5f3f 0ede b53f 99c6 f23e
00000110: 07e4 b83e 5143 a63f d246 673e 4bc7 643e
00000120: be7c cbbc cd1e 863f 0070 a13f dcce 1e3e
00000130: 105b 3d3f f036 c03b 2cd9 a13f 4ccf 3d3e
00000140: a83d 013e 00e0 303f 2f81 b8bd 5d10 7d3f
00000150: e951 ac3e beb6 b73f d614 9fbd ef5f a6bf
00000160: 4ddb 313f 6465 863f f2c6 c73f 365d e7bf
00000170: 15dc 9c3f 85bc 833f 9466 033f f03e c73f
00000180: 1a06 a13f f4a8 6dbe a6c4 793f 2bdb 923f
00000190: 7983 c03f 8427 903f 36ca 053f 0512 ce3f
000001a0: 0758 a93f 801d 2e3f d292 6b3f f863 8d3d
000001b0: 0577 653f 3f9a b73f f97a ff3d c8eb c53f
000001c0: e061 0e3f fe0d eb3d e5f5 d33f e023 21bd
000001d0: 9ad2 ca3f 0067 f93e 232e 523c bd44 723e
000001e0: 6adf 8d3f 164c e23c d07f b73f b4c4 db3e
000001f0: bcdb d03f 2200 ba3f 179d 203f 45ac 823f
0.13961516 1.371669 0.0045008324 -0.060547996 1.5505491 0.0069258027 0.03849808 -0.16317698
1.654717 0.99526006 1.2611656 0.68594354 1.3333493 1.2998073 1.0795183 -0.042001963
-0.10889193 1.4029418 1.5802666 1.3768895 1.589356 0.88722867 1.1585338 -0.32126307
0.9674335 0.87098897 0.14416365 1.1324247 1.6499319 1.0046594 0.8888429 -0.08211814
-0.055371616 1.4870691 0.8430454 0.13834698 0.8174787 1.3270639 0.093344525 0.16616492
0.54748034 1.2687154 1.1013772 -0.034427993 0.32444218 1.5319513 -0.10847126 0.1861376
-0.018266324 -0.27950996 0.6990148 -0.30095783 -0.16448864 0.41614056 -0.30975682 0.3832038
0.17501445 0.08493597 -0.022906858 -0.08823751 0.7003039 0.9813949 -1.0470692 0.82515836
0.5085714 0.87498677 1.4208391 0.47417143 0.3611147 1.2989293 0.2258561 0.22341649
-0.024839755 1.047815 1.2612305 0.15508598 0.73967075 0.005865924 1.2644401 0.18536109
0.12621176 0.69091797 -0.09009015 0.98853093 0.33656242 1.4352643 -0.07767646 -1.2998027
0.6947525 1.0499692 1.5607588 -1.8075321 1.2254664 1.0291907 0.51328397 1.5566082
1.2579987 -0.23208982 0.97565687 1.1473135 1.5040122 1.1262059 0.52261674 1.6099249
1.3229989 0.68013763 0.92020905 0.06903833 0.89634734 1.4343947 0.12474627 1.546258
0.55618095 0.11477278 1.6559416 -0.039340854 1.584552 0.48711395 0.012828383 0.23659034
1.1083806 0.027624171 1.433588 0.4292351 1.6317058 1.453129 0.627397 1.0208822
